model/ai_model.pt (torch, 75387 bytes, 19 tensors)

weight f4 [128, 36]
0	0xbe1e0d0a	-0.15434662
1	0xbe293c00	-0.16526794
2	0x3e04c4b2	0.12965658
3	0xbca063b1	-0.019578787
4	0xbd41614d	-0.047211934
5	0xbe02a7fa	-0.1275939
6	0x3e2f413a	0.17114726
7	0xbd8d8a61	-0.06911159
8	0x3e16cc8d	0.14726467
9	0xbe2f2c91	-0.17106844
10	0x3d865abe	0.065602764
11	0xbd58b882	-0.052910335
12	0x3e20af5f	0.15691899
13	0x3c48188a	0.012212882
14	0xbd50245a	-0.050815918
15	0xbd7f8078	-0.062378377
16	0xbd513321	-0.05107415
17	0x3e31e9e4	0.17374378
18	0x3b82b90a	0.0039893435
19	0xbe1bcdbf	-0.15215205
20	0x3c406b95	0.0117444
21	0x3c2d44be	0.010575471
22	0x3e08cbab	0.13358943
23	0xbe17577c	-0.14779466
24	0xbc481606	-0.012212282
25	0x3e0a9e23	0.13536887
26	0x3c390127	0.011291779
27	0xbc08fa9d	-0.008360532
28	0xbe11c1c3	-0.1423407
29	0xbdfeccac	-0.12441382
30	0xbd46a4b5	-0.04849692
31	0xbe229cb7	-0.15880094
32	0x3d8f82b7	0.07007354
33	0x3d9d78f3	0.07689085
34	0xbe16ef40	-0.14739704
35	0x3e43f95e	0.19138095
36	0x3ca36281	0.019944431
37	0x3e039782	0.12850764
38	0xbd6c0ff7	-0.057632413
39	0x3e1f4826	0.15554866
40	0x3e1c06de	0.15236995
41	0xbe1ad565	-0.15120466
42	0xbd8a89a6	-0.067645356
43	0xbe10e7c9	-0.14150919
44	0xbc3bd499	-0.011464261
45	0xbdf42160	-0.11920428
46	0xbda9bf10	-0.082883954
47	0x3d3eefa5	0.04661526
48	0x3da592ae	0.080846176
49	0x3e12eded	0.14348574
50	0x3e23b3df	0.15986584
51	0x3d39c0e5	0.045349974
52	0xbd136f2e	-0.0359947
53	0x3cd87133	0.026421165
54	0x3e155d50	0.14586377
55	0x3e431bb4	0.19053537
56	0xbe327ca8	-0.17430365
57	0x3e287566	0.16451034
58	0xbd395645	-0.04524829
59	0xbd2d1dcb	-0.04226474
60	0xbe206499	-0.15663375
61	0x3d9936d4	0.07481161
62	0x3d80be21	0.06286264
63	0x3e0a4c0c	0.13505572
64	0xbdc5ea3b	-0.096638165
65	0x3de087a9	0.10963375
66	0xbe2a991a	-0.16659966
67	0x3e174e44	0.1477595
68	0x3dffff87	0.1249991
69	0xbe259a4e	-0.16172144
70	0xbe1cffe5	-0.15331991
71	0x3d3b9cbf	0.04580378
72	0x3d5720fe	0.0525217
73	0x3de27fa2	0.110595
74	0x3d5077f7	0.050895657
75	0xbdcba65d	-0.09943841
76	0x3cfcf1b1	0.030876966
77	0xbdf1355f	-0.11777758
78	0xbdb5d5e7	-0.08878689
79	0x3cbe8925	0.023258755
80	0x3c36b6c7	0.011151976
81	0xbdd6b3e4	-0.1048353
82	0xbcdc7184	-0.026909597
83	0xbdbaa64e	-0.09113751
84	0xbe073f02	-0.1320763
85	0x3c5be772	0.01342188
86	0xbcc1f9ff	-0.023678778
87	0x3d01ffb1	0.031737987
88	0x3d4cec20	0.050029874
89	0xbdf5168d	-0.11967192
90	0xbd96f295	-0.073704876
91	0xbd3af239	-0.045641158
92	0xbdda22cf	-0.106511705
93	0x3de39ac5	0.11113504
94	0x3dea197b	0.11430641
95	0xbde6937c	-0.11258599
96	0xbdba6d8e	-0.09102927
97	0xbd646f35	-0.055770118
98	0xbcc6f6b6	-0.024287563
99	0x3cc0b84d	0.023525381
100	0xbe0e41ac	-0.1389224
101	0xbbe1fcc8	-0.006896589
102	0xbdd5c3af	-0.10437714
103	0x3dcc5bbf	0.09978437
104	0xbdd3313e	-0.103121266
105	0x3cc43933	0.023953056
106	0x3e401a29	0.1875998
107	0xbde00e89	-0.10940272
108	0x3c45ae4e	0.012065483
109	0x3e4c5125	0.19952829
110	0x3b822313	0.0039714663
111	0xbe1ac63d	-0.15114684
112	0xbe0f2f47	-0.13982879
113	0xbe5c3cf6	-0.2150763
114	0xbe2ccf8a	-0.16876045
115	0xbe1a15db	-0.150474
116	0x3c8a0d44	0.016852029
117	0x3cd88b05	0.026433477
118	0xbda1f967	-0.07908898
119	0x3d8fd1e8	0.07022458
120	0xbe0c8930	-0.13724208
121	0x3bbc5767	0.005747724
122	0xbe3bc29a	-0.18335953
123	0x3d12db6d	0.035853792
124	0xbe544a4b	-0.20731466
125	0x3d167246	0.036730073
126	0xbd753052	-0.059860535
127	0xbe3665bc	-0.17812246
128	0x3dabac24	0.083824426
129	0xbcc59e3e	-0.024123307
130	0xbe26d71a	-0.16292992
131	0x3b7202f3	0.0036928027
132	0xbe0fdc5d	-0.14048906
133	0xbe2dc590	-0.16969895
134	0xbd51367c	-0.05107735
135	0xbd744380	-0.059634686
136	0xbe24bfb3	-0.16088752
137	0x3d619843	0.05507685
138	0xbc744e7d	-0.014911291
139	0xbe039da4	-0.12853104
140	0x3d0de8af	0.034645732
141	0x3d369a83	0.044580948
142	0x3add148f	0.0016867089
143	0x3cd096b9	0.025462495
144	0xbdacdb2a	-0.0844024
145	0x3e079d82	0.13243678
146	0x3de0c8c4	0.10975793
147	0x3e57f52e	0.21089622
148	0x3b63d833	0.0034766316
149	0x3e4c341b	0.19941752
150	0x3e985a12	0.29756218
151	0x3dcb36f0	0.09922588
152	0x3e02e3c4	0.12782198
153	0xbd0b2cd4	-0.0339783
154	0x3daa50c7	0.08316188
155	0xbdc75ed7	-0.09734886
156	0x3cbfb691	0.023402484
157	0xbca7c42c	-0.020479284
158	0x3e2c805c	0.1684584
159	0xbcc3c762	-0.023898784
160	0x3e3c058e	0.18361494
161	0x3e14f529	0.14546646
162	0x3d06f0fa	0.032944657
163	0x3e04507f	0.12921332
164	0x3e63ffd3	0.22265558
165	0xbced3e01	-0.02896023
166	0xbdcb347e	-0.099221215
167	0x3d5a23a8	0.05325666
168	0x3daaf5b7	0.08347648
169	0x3db2dc10	0.0873338
170	0x3e412517	0.18861805
171	0x3c8b31dd	0.01699155
172	0x3dc7ac76	0.09749691
173	0xbd6b466b	-0.057440203
174	0x3e29c989	0.16580786
175	0xbda42c6a	-0.08016284
176	0x3d10bd66	0.035336874
177	0xbd621ad7	-0.055201378
178	0x3cbfbabb	0.02340447
179	0xbd446748	-0.04795006
180	0xbe36d173	-0.17853336
181	0x3c767682	0.015042903
182	0x3e0137b1	0.12618901
183	0xbb8bdd69	-0.0042683375
184	0x3d907c28	0.07054931
185	0x3d6ee0c5	0.058319826
186	0x3e8bf193	0.27332744
187	0x3da54298	0.080693424
188	0x3d952df3	0.07284155
189	0xbd04db81	-0.032435898
190	0x3deaa52e	0.11457287
191	0x3e00f475	0.12593253
192	0x3c97fd0b	0.018553277
193	0x3c7cc467	0.015427685
194	0xbcfc3fa6	-0.030792069
195	0x39c526d7	0.00037603706
196	0xbdc984fc	-0.09839818
197	0x3dca6f42	0.09884502
198	0x3e240d3f	0.16020678
199	0x3db83136	0.08993761
200	0x3e08606a	0.13318029
201	0x3e27c679	0.16384305
202	0x3e34bc52	0.17649963
203	0x3d100d1f	0.035168763
204	0x3e08efd4	0.13372737
205	0x3e3c22b2	0.1837261
206	0x3d8ef85f	0.06980967
207	0x3cc6b027	0.024253918
208	0xbd959292	-0.07303347
209	0x3c56b8a2	0.013105543
210	0x3dce8e57	0.10085743
211	0xbe0359fc	-0.12827295
212	0xbe01502b	-0.12628238
213	0x3bd0a730	0.0063675866
214	0xbc59f378	-0.013302676
215	0x3d56d3b3	0.052447986
216	0x3dc2e31b	0.09515973
217	0xbdc250b6	-0.09488051
218	0x3d230397	0.039798345
219	0xbdb76dd2	-0.089564934
220	0x3d261c9f	0.04055464
221	0xbdcea411	-0.10089887
222	0xbdf33955	-0.118761696
223	0x3ccb2f02	0.024802689
224	0x3df89a39	0.12138791
225	0xbe0b5c29	-0.13609375
226	0xbde8d189	-0.11368091
227	0x3d02f20e	0.031969123
228	0x3e3ab182	0.18231776
229	0xbd08427d	-0.033266533
230	0x3e3913ae	0.18073913
231	0x3e251180	0.16119957
232	0xbd933520	-0.07187867
233	0x3d60311c	0.054734334
234	0x3e0243d7	0.12721191
235	0xbdcf52f6	-0.101232454
236	0x3db9d2a3	0.09073379
237	0x3daded9c	0.08492586
238	0x3c96f9c9	0.018429654
239	0xbe1750cc	-0.14776915
240	0xbba643c6	-0.005073997
241	0xbde270e3	-0.11056688
242	0x3cebb1f7	0.028771384
243	0x3ce9e343	0.02855075
244	0xbd5b3517	-0.053517427
245	0x3e19fb8d	0.15037365
246	0xbdd580c1	-0.104249485
247	0x3e096969	0.13419117
248	0x3df273e5	0.118385114
249	0x3e380b2f	0.17973016
250	0x3d9fb21f	0.07797646
251	0x3dda09d4	0.10646406
252	0xbda54a00	-0.08070755
253	0x3d06ca74	0.032907918
254	0x3e0f2897	0.13980328
255	0xbe33c2c8	-0.17554772

bias f4 [128]
0	0x3bf6e273	0.007534319
1	0x3c88bb07	0.016690744
2	0x3c859004	0.016304024
3	0x3e6a7ae1	0.22898437
4	0x3ccead7f	0.025229214
5	0x3cf2322c	0.02956494
6	0x3b5a19db	0.0033279571
7	0xbce3ecd1	-0.027822884
8	0xbd05b2c4	-0.032641187
9	0xbd1659cf	-0.036706742
10	0x3d339091	0.04383904
11	0xbc174081	-0.0092316875
12	0x3ce98851	0.028507384
13	0xbad32eef	-0.001611201
14	0xbb04d989	-0.0020271263
15	0xbcaee098	-0.021347329
16	0xbcfdf580	-0.031000853
17	0x38771558	5.8909267e-05
18	0xbc829735	-0.015941242
19	0x3e292e9f	0.16521691
20	0xbc90f71e	-0.01769596
21	0xbb5ef2f6	-0.0034019328
22	0x3d78b779	0.06072185
23	0x3c267f85	0.010162239
24	0x3c53be81	0.012923838
25	0xbd27302e	-0.040817432
26	0x39a36813	0.00031167324
27	0x3ce069dc	0.027394228
28	0x3e0a00c4	0.13476855
29	0x3c17746a	0.009244064
30	0x3c568e5e	0.013095466
31	0x3cfdc062	0.030975524
32	0x3a857abc	0.0010183672
33	0x3b08c070	0.0020866655
34	0xbc29cb1e	-0.010363368
35	0x3a7ce61a	0.0009647325
36	0x3df78d4a	0.120874956
37	0xbbaeac7b	-0.00533062
38	0x3beb0613	0.007172355
39	0x3c0eb74a	0.008710692
40	0x3cac8b0f	0.021062402
41	0x3caf1571	0.021372529
42	0xbc081326	-0.008305347
43	0x3bceb042	0.0063076327
44	0x3c458cd2	0.0120575
45	0xbc1b0506	-0.009461647
46	0xbb89d27b	-0.0042059994
47	0xbaa7df49	-0.0012807633
48	0xbb65cfc6	-0.003506647
49	0xbac874bc	-0.0015293579
50	0xbc533d0e	-0.012892975
51	0x3d1ecf8a	0.038772143
52	0xbbb1bcff	-0.0054241414
53	0x3b938e96	0.0045030816
54	0xbd29993c	-0.0414059
55	0x3c883218	0.016625449
56	0xbbd1cd69	-0.0064026606
57	0xbab6021c	-0.0013886127
58	0x3bb24226	0.0054400144
59	0xbc044859	-0.00807389
60	0xbbde4c26	-0.00678398
61	0x3c4691f4	0.012119759
62	0xbb8208c2	-0.003968329
63	0x3d7ee34a	0.06222848
64	0x3b9c59fd	0.0047714696
65	0x3d020c9a	0.0317503
66	0xbc697838	-0.014249854
67	0x3d204cff	0.03913593
68	0xbc80ba3f	-0.015713809
69	0xbd05b091	-0.03263909
70	0x3d626833	0.055275153
71	0x3c4dcc0a	0.012560854
72	0xbc137603	-0.009000304
73	0x3bbc3e0f	0.0057447026
74	0x3cac28d5	0.021015564
75	0x3bfb9f79	0.0076789227
76	0x3cea8bcd	0.028631115
77	0x3c3416f2	0.010991799
78	0xb4fc3a1a	-4.6980932e-07
79	0xbc8014a5	-0.015634844
80	0x3bba30df	0.0056820954
81	0x3ac61d6b	0.0015114968
82	0x3c22f2d0	0.009945586
83	0xbc382210	-0.01123859
84	0x3b9f8079	0.00486761
85	0xbbd746b1	-0.0065697064
86	0x3da80f5e	0.08206056
87	0xb6c4bbaa	-5.863102e-06
88	0xbb26dd5d	-0.0025461533
89	0xbce7f29f	-0.028313933
90	0x3be8d21c	0.007105125
91	0xbc8980ca	-0.016785044
92	0xbbce8247	-0.0063021514
93	0x3c91127b	0.017709007
94	0xbcacda53	-0.021100199
95	0x3db00189	0.08594043
96	0x3ca8e8b4	0.020618774
97	0xbaff3b0e	-0.0019472556
98	0xbc50b9db	-0.012739624
99	0x3c2a10be	0.010379968
100	0x3c7a37b2	0.015272068
101	0x3c52d890	0.012869015
102	0x3dd2cdd6	0.10293166
103	0xbcfd3d24	-0.030912943
104	0x3e0bb353	0.13642626
105	0xbd39f97e	-0.04540395
106	0xbbded2c2	-0.0068000266
107	0x3dd768d0	0.10518038
108	0xbcecf32f	-0.028924553
109	0xba711152	-0.00091960013
110	0xbcdf7325	-0.027276585
111	0x3d856f17	0.06515329
112	0x3d40327a	0.04692314
113	0x3b81bce7	0.0039592865
114	0x3da706b5	0.08155576
115	0x3e4f8f4e	0.2026951
116	0x3c61f0cd	0.013790322
117	0x3c14c2b5	0.009079625
118	0x3b71afb3	0.0036878407
119	0x3e019572	0.12654665
120	0xbc85fd6b	-0.01635619
121	0x3cb4829c	0.022034936
122	0xbc81067f	-0.015750168
123	0xbb088f65	-0.0020837423
124	0xbbea93c2	-0.0071587274
125	0xbb9fc2db	-0.0048755235
126	0x3bce4b47	0.006295595
127	0xbc2f5498	-0.010701321

weight f4 [128]
0	0x3f61aed2	0.8815738
1	0x3f5ce1b2	0.86281884
2	0x3f65776d	0.89635354
3	0x3f827447	1.0191735
4	0x3f7e0851	0.9923144
5	0x3f7eaf8f	0.9948663
6	0x3f60b467	0.8777527
7	0x3f685630	0.9075651
8	0x3f77a7b8	0.96740294
9	0x3f64f62c	0.8943813
10	0x3f6eb4d9	0.932447
11	0x3f4d16b1	0.8011275
12	0x3f737ac2	0.9510919
13	0x3f6ccc95	0.9249967
14	0x3f747b10	0.9550028
15	0x3f492ed7	0.78587097
16	0x3f6bd41f	0.92120546
17	0x3f65d990	0.897851
18	0x3f5cf84f	0.8631639
19	0x3f8278d9	1.019313
20	0x3f58be4f	0.8466539
21	0x3f790c43	0.97284335
22	0x3f75788e	0.95887077
23	0x3f380f49	0.71898323
24	0x3f796a8a	0.9742819
25	0x3f63bce4	0.889601
26	0x3f6d5a50	0.9271593
27	0x3f627d66	0.8847259
28	0x3f72ecbf	0.94892496
29	0x3f6ede9e	0.93308437
30	0x3f701615	0.93783695
31	0x3f6b7da9	0.9198862
32	0x3f62cb93	0.8859188
33	0x3f1d039f	0.6133365
34	0x3f882674	1.0636735
35	0x3f689423	0.9085104
36	0x3f81381b	1.0095247
37	0x3f59532e	0.8489255
38	0x3f71d132	0.9445983
39	0x3f604d84	0.8761828
40	0x3f6f1b59	0.93401104
41	0x3f5e3ff4	0.86816335
42	0x3e69189f	0.22763298
43	0x3f6a99ac	0.91640735
44	0x3f67c1f0	0.905303
45	0x3f5eb238	0.8699069
46	0x3f6f1cb9	0.934032
47	0x3f77b6e4	0.96763444
48	0x3dd1bbb6	0.10240881
49	0x3f6732b7	0.9031176
50	0x3f548e53	0.8302967
51	0x3f669b88	0.9008107
52	0x337264df	5.6436757e-08
53	0x3f67ac4d	0.90497285
54	0x3f6539db	0.89541405
55	0x3f6d4ffc	0.9270017
56	0x3f63e94c	0.8902786
57	0x3f667794	0.9002621
58	0x3f5fd1d7	0.87429565
59	0x3f6c3b8d	0.9227837
60	0x3f758e56	0.9592031
61	0x3f7413c5	0.95342666
62	0x3f82322a	1.0171559
63	0x3f643c46	0.8915447
64	0x3f58f958	0.8475547
65	0x3f64cf6f	0.8937902
66	0x3f6a786c	0.9159
67	0x3f6cf501	0.92561346
68	0x3f6c2dbd	0.9225729
69	0x3f61fcd4	0.8827641
70	0x3f70972e	0.9398068
71	0x3f558a08	0.83413744
72	0x3e85bcef	0.26120707
73	0x3f6c647e	0.9234084
74	0x3f6d5b2d	0.9271725
75	0x3f5be93f	0.8590278
76	0x3f6635fe	0.89926136
77	0x3f6655b5	0.8997453
78	0x3f78da36	0.97207963
79	0x3f443397	0.7664122
80	0x3f630eee	0.88694656
81	0x3f64a288	0.89310503
82	0x3f69a3af	0.91265386
83	0x3f69c082	0.9130937
84	0x3f8295cf	1.0201968
85	0x3f821bbc	1.0164714
86	0x3f6ce931	0.9254332
87	0x3f60b979	0.8778301
88	0x3f3eeec9	0.7458311
89	0x3f64e6b7	0.8941454
90	0x3f678bec	0.9044788
91	0x3f67374d	0.9031876
92	0x3e44ebb2	0.19230536
93	0x3f5ae5e4	0.85507035
94	0x3f64ef9c	0.89428115
95	0x3f60f2c2	0.8787042
96	0x3f7e6a88	0.99381304
97	0x3f62ddde	0.8861979
98	0x3f5fa881	0.8736649
99	0x3f703178	0.93825483
100	0x3f762468	0.961493
101	0x3f61b654	0.88168836
102	0x3f72fd38	0.9491763
103	0x3f6d13c6	0.92608297
104	0x3f80a3cf	1.004999
105	0x3f5d6c40	0.864933
106	0x3f64f241	0.8943215
107	0x3f76a4c9	0.9634519
108	0x3f893f1b	1.0722383
109	0x3f632809	0.88732964
110	0x3f725784	0.9466479
111	0x3f67d86a	0.90564597
112	0x3f867aad	1.0506188
113	0x3f59f531	0.8513976
114	0x3f717ba0	0.9432926
115	0x3f7ecf19	0.99534756
116	0x3f699809	0.9124761
117	0x3f6d2609	0.9263616
118	0x3f5ea5f7	0.8697199
119	0x3f7fb9ba	0.9989277
120	0x3f5dc9d1	0.8663607
121	0x3f670333	0.90239257
122	0x3f4bcc5f	0.7960872
123	0x3f6c9383	0.92412585
124	0x3f6b57df	0.91930956
125	0x3f5edb9e	0.8705386
126	0x3f73e71f	0.9527454
127	0x3f698f1d	0.91234

bias f4 [128]
0	0x3d5d4126	0.05401721
1	0x3d0fdf7b	0.035125237
2	0x3a2b4830	0.0006533889
3	0xbc959929	-0.018261509
4	0x3cf7f8de	0.030270036
5	0x3da57c2d	0.08080325
6	0x3ca797e9	0.020458179
7	0x3bc52d2d	0.0060173483
8	0xbd8e4fae	-0.069487914
9	0xbd67c6fc	-0.05658625
10	0x3d82b62b	0.06382402
11	0x3da0460c	0.078258604
12	0x3cc126ec	0.02357813
13	0xbd64c05a	-0.055847503
14	0x3d5cfcd1	0.053952042
15	0xbd5af7ef	-0.053459104
16	0xbcbf949e	-0.023386296
17	0xbcc731c6	-0.024315726
18	0xbca18095	-0.019714633
19	0xbd0fac06	-0.035076164
20	0x3c9f72c4	0.019463904
21	0x3cf78702	0.030215744
22	0x3d04ee72	0.03245396
23	0xbd36e8de	-0.044655673
24	0x3ce956f8	0.028483853
25	0xbdcb1981	-0.09916974
26	0xbcfdb1b7	-0.03096853
27	0xbdb545a1	-0.08851171
28	0xbd5b072e	-0.053473644
29	0x3d92c587	0.071665816
30	0x3d9e396b	0.07725795
31	0xbc57c452	-0.013169365
32	0x3db783a0	0.08960652
33	0x3dbbbcb9	0.09166855
34	0x3dd714d5	0.1050202
35	0x3ad51183	0.0016255829
36	0x3c93042d	0.017946327
37	0x3ced5365	0.02897043
38	0xbdf780c6	-0.120851085
39	0x3c8f2aef	0.017476527
40	0x3c88953f	0.016672729
41	0xbce0f5b1	-0.027460905
42	0x3d892989	0.06697375
43	0xbcad26ce	-0.021136668
44	0xbc662618	-0.014047168
45	0xbc9c10c1	-0.019050958
46	0x3c277a04	0.010221962
47	0x3c82f266	0.015984725
48	0xbcafdf32	-0.021468733
49	0x3d27f923	0.04100908
50	0x3d839081	0.06424046
51	0x3d0091ba	0.031388976
52	0xbd9c4898	-0.07631034
53	0xbd857efe	-0.065183625
54	0x3cc49742	0.023997907
55	0x3c3679aa	0.011137405
56	0xbd5d182d	-0.053978134
57	0x3d37be21	0.044859055
58	0x3bd6e84d	0.006558454
59	0xbbf0ff16	-0.0073546274
60	0xbd03b23e	-0.032152407
61	0xbd3ff311	-0.046862666
62	0x3d175a38	0.036951274
63	0x3ce049fe	0.027379032
64	0xbd07a093	-0.03311212
65	0x3d8960fd	0.06707952
66	0xbcfea582	-0.03108478
67	0x3d83871f	0.06422257
68	0xbc72e81b	-0.014825846
69	0x3d76a979	0.060220215
70	0xbca32edb	-0.019919803
71	0x3c00d519	0.007863306
72	0x3d5eb7ea	0.054374613
73	0xbcd007db	-0.02539437
74	0x3d85c886	0.065323874
75	0x3d2b4a4e	0.04181891
76	0x3d57bedb	0.05267225
77	0xbc8e7308	-0.017388836
78	0xbc294cbe	-0.010333238
79	0x3ce79794	0.02827052
80	0xbb0c4d8d	-0.0021408529
81	0xbb7dd630	-0.0038732402
82	0xbca5ae0f	-0.0202246
83	0x3d782bd0	0.060588658
84	0x3d8b149b	0.067910396
85	0x3d4456a3	0.047934186
86	0xbd01eb49	-0.031718526
87	0x3d903386	0.07041077
88	0xbc3b8fd4	-0.0114478655
89	0x3d585ad2	0.052820988
90	0xbd83d048	-0.06436211
91	0x3c80a34e	0.01570287
92	0xbc222cd6	-0.009898385
93	0xba2c5adb	-0.0006574818
94	0xbccc2a82	-0.024922613
95	0x3d36b1fb	0.04460333
96	0x3dee9fde	0.11651586
97	0xbd0065de	-0.031347148
98	0x392c1cc3	0.00016413913
99	0x3d368de0	0.044568896
100	0x3cd67d3b	0.026182761
101	0xbc7d2302	-0.015450241
102	0xbd8594e3	-0.065225385
103	0xbcbfe6e5	-0.023425529
104	0xbc2f5bdc	-0.010703053
105	0x3d6ca882	0.05777789
106	0xbd1bd767	-0.03804722
107	0xbb9990f6	-0.00468647
108	0x3db78ce5	0.089624204
109	0xbc99c1ca	-0.018769164
110	0xbd0b8905	-0.03406622
111	0x3d4abd7e	0.04949712
112	0x3d601b49	0.05471352
113	0x3ce97af6	0.028501015
114	0xbbc45710	-0.005991824
115	0xbcb2d9d9	-0.021832393
116	0xbc58845f	-0.0132151535
117	0xbd6ca225	-0.05777182
118	0x3d5a815f	0.053346034
119	0x3c09db75	0.008414139
120	0xbc982f9a	-0.018577386
121	0xbc2eb69d	-0.010663656
122	0x3da7420c	0.08166894
123	0x3d1ee015	0.03878792
124	0x3d89050f	0.06690418
125	0xbbaec3b2	-0.0053333873
126	0x3d826ab1	0.06368006
127	0xbd556161	-0.05209482

running_mean f4 [128]
0	0x3de244d2	0.11048283
1	0x3cf974fa	0.030451287
2	0x404546ee	3.0824542
3	0x3e645e11	0.22301508
4	0x3f86e030	1.0537167
5	0x3f1a8327	0.6035637
6	0x400b671b	2.178168
7	0x359b3020	1.1562406e-06
8	0x3f8ca03b	1.0986398
9	0x3d3a72f0	0.04551977
10	0x3f7db381	0.99102026
11	0x3643ac37	2.9157507e-06
12	0x3f199a71	0.60001284
13	0x3cc20c56	0.023687523
14	0x3db62e14	0.088955075
15	0x00000004	6e-45
16	0x3cc0bef5	0.023528555
17	0x404ec0d4	3.2305193
18	0x39933705	0.00028079018
19	0x3ca7ecde	0.02049869
20	0x38a14305	7.6895616e-05
21	0x3e413392	0.18867329
22	0x3f542ff6	0.8288568
23	0x3804dcde	3.167695e-05
24	0x3f04a057	0.5180716
25	0x3f7535ea	0.9578539
26	0x4019f162	2.4053578
27	0x3f9f48bf	1.2444075
28	0x3ed9d956	0.42548627
29	0x3f7db004	0.99096704
30	0x3f49dbde	0.78851116
31	0x3fb4f2a4	1.4136548
32	0x3dc414de	0.095742926
33	0x369b079e	4.6202467e-06
34	0x3f05f136	0.52321184
35	0x40955f21	4.6678624
36	0x3c3c8e76	0.011508575
37	0x40681099	3.626013
38	0x3acad12e	0.0015473717
39	0x3faa4376	1.3301837
40	0x3eabb625	0.33537403
41	0x3a90e858	0.0011055572
42	0x00000004	6e-45
43	0x3e396f96	0.18108973
44	0x3fdf9631	1.746771
45	0x3ca9af43	0.020713454
46	0x3f511c3a	0.81683695
47	0x3de289de	0.11061452
48	0x336f6139	5.5734947e-08
49	0x407983e3	3.8986747
50	0x00000004	6e-45
51	0x3e0d8e04	0.13823706
52	0x00000004	6e-45
53	0x3e1810a1	0.14850093
54	0x3fa15792	1.2604849
55	0x3da1a712	0.07893194
56	0x401596fc	2.3373404
57	0x3ee48f0c	0.44640386
58	0x3c89c369	0.016816812
59	0x3ce58ead	0.028022135
60	0x3f3b8211	0.7324534
61	0x3b254b19	0.0025221764
62	0x3f9113a8	1.1334124
63	0x3f99afe3	1.2006801
64	0x3e4b3ecd	0.19848175
65	0x3f84fefc	1.0390315
66	0x3d555bc8	0.052089483
67	0x3eddb216	0.4329993
68	0x3e3eb897	0.18625103
69	0x3a6f6ad0	0.0009133043
70	0x3e68b82a	0.22726503
71	0x3d06e498	0.032932848
72	0x00000004	6e-45
73	0x4010f2dc	2.264823
74	0x3f57c817	0.8428969
75	0x3e3ba5c6	0.18324956
76	0x3f48df42	0.78465664
77	0x3d61bd8e	0.055112414
78	0x4021fe82	2.531159
79	0x3783c4ee	1.570812e-05
80	0x3fb3871a	1.4025605
81	0x3a35b6b1	0.0006931825
82	0x3cfbce52	0.03073803
83	0x3eb766fe	0.35820764
84	0x3f99429b	1.1973451
85	0x3f399b60	0.7250271
86	0x3e7dc797	0.24783169
87	0x3fe0f6c9	1.7575313
88	0x39391992	0.000176525
89	0x3eedd0ee	0.46448463
90	0x3f837bc7	1.0272149
91	0x3b04629c	0.0020200377
92	0x331d5980	3.663581e-08
93	0x3f45f64c	0.77328944
94	0x3d59382b	0.05303208
95	0x3e955ed5	0.29173914
96	0x3ec4514b	0.38343272
97	0x3ecfcb50	0.40584803
98	0x3e47a069	0.19494785
99	0x3d798ba7	0.0609242
100	0x3f435d2e	0.76314056
101	0x3ab87832	0.0014073907
102	0x3c948cda	0.01813357
103	0x401144b0	2.2698174
104	0x3e9be129	0.3044522
105	0x359b8f66	1.1590134e-06
106	0x406f8a87	3.74283
107	0x3eb0c6fa	0.34526807
108	0x3efee9c9	0.4978774
109	0x4056e434	3.3576784
110	0x3d2f6f10	0.042830527
111	0x3eb7d860	0.3590727
112	0x3ebf6f2d	0.37389508
113	0x38b87c6b	8.796978e-05
114	0x3e886261	0.26637557
115	0x3e89bf71	0.2690387
116	0x401d2bef	2.4558065
117	0x3c20cbc1	0.009814204
118	0x395e8502	0.00021221119
119	0x3eadc1e1	0.3393698
120	0x3ac34d76	0.0014900404
121	0x3a77d8ee	0.0009454627
122	0x368c6aa4	4.1847397e-06
123	0x3daddcea	0.08489402
124	0x3f2d102f	0.6760282
125	0x3c880285	0.016602764
126	0x3fb9de4c	1.4520965
127	0x330a986c	3.2269256e-08

running_var f4 [128]
0	0x3da20bab	0.07912382
1	0x3c697dd9	0.014251196
2	0x409f6fdb	4.982404
3	0x3d55520b	0.052080195
4	0x3f269549	0.6507154
5	0x3eb98706	0.36235827
6	0x3f8199d1	1.0125066
7	0x32885cb7	1.5874646e-08
8	0x3f11e069	0.5698305
9	0x3cb5ef5a	0.022208858
10	0x3e98c499	0.29837492
11	0x33825a82	6.07006e-08
12	0x3ea0c943	0.3140355
13	0x3be75066	0.007059145
14	0x3ce261a9	0.027634459
15	0x00000004	6e-45
16	0x3c1a6555	0.0094235735
17	0x4081e304	4.058962
18	0x38217f69	3.850405e-05
19	0x3b408675	0.0029377018
20	0x35eba8f8	1.7558041e-06
21	0x3e229084	0.15875441
22	0x3ef1aa51	0.47200254
23	0x34e8e1eb	4.3377744e-07
24	0x3e85f54d	0.26163712
25	0x3f11a2e4	0.56889176
26	0x3f9c51a6	1.2212417
27	0x3f8cb3f7	1.0992421
28	0x3e59fb9a	0.21287385
29	0x3f172323	0.5903799
30	0x3ee7482c	0.4517225
31	0x3fb32bee	1.3997781
32	0x3d522905	0.05130865
33	0x3340c151	4.4879304e-08
34	0x3e636040	0.22204685
35	0x40a6e78a	5.215764
36	0x3a9141e4	0.0011082259
37	0x407019f9	3.7515852
38	0x39140107	0.00014114763
39	0x3ef71040	0.48254585
40	0x3e21aff0	0.15789771
41	0x38b8fce9	8.820912e-05
42	0x00000004	6e-45
43	0x3e2f89ea	0.17142454
44	0x3f413b00	0.7548065
45	0x3bed491d	0.007241382
46	0x3e4b0111	0.19824626
47	0x3d768f03	0.06019498
48	0x2fabc6db	3.1246014e-10
49	0x40827e38	4.0779076
50	0x00000004	6e-45
51	0x3d629e9a	0.055327035
52	0x00000004	6e-45
53	0x3cf3839c	0.029725842
54	0x3f2344a1	0.63776594
55	0x3d585adc	0.052821025
56	0x4033c48d	2.8088715
57	0x3dfeedd5	0.124477066
58	0x3ba7780c	0.0051107462
59	0x3c2da9de	0.0105995815
60	0x3eb916a2	0.3615008
61	0x39513f9f	0.00019955494
62	0x3f0ccb8b	0.5499808
63	0x3f988afc	1.1917415
64	0x3da4aca6	0.080407426
65	0x3ec22b3d	0.37923613
66	0x3cbde3cd	0.023179913
67	0x3e8421bb	0.25806984
68	0x3e35b08f	0.17743133
69	0x390a0238	0.00013161532
70	0x3d995386	0.07486634
71	0x3c6af0a9	0.014339604
72	0x00000004	6e-45
73	0x3fa2ff5c	1.273418
74	0x3e248dde	0.16069743
75	0x3e14a208	0.14514935
76	0x3e9d3b9d	0.30709544
77	0x3d07b908	0.033135444
78	0x3f817827	1.0114793
79	0x34a1b32f	3.011896e-07
80	0x3f92685c	1.1438098
81	0x388b317b	6.637253e-05
82	0x3c12474a	0.008928129
83	0x3e37c23a	0.17945185
84	0x3ed6b65f	0.41936013
85	0x3e99b403	0.3002015
86	0x3e2ac825	0.16677912
87	0x3fd7e41f	1.6866492
88	0x36b7effa	5.481762e-06
89	0x3e974ee8	0.29552388
90	0x3f611ea7	0.87937397
91	0x395f6d91	0.00021307754
92	0x2f48bcd8	1.8256985e-10
93	0x3eb3dbaf	0.35128543
94	0x3ce7e118	0.028305575
95	0x3e66bb38	0.22532356
96	0x3e3fc8af	0.18728898
97	0x3e1257b0	0.14291263
98	0x3e2a2fda	0.16619816
99	0x3cc56734	0.024097063
100	0x3eccfb43	0.40035447
101	0x39212d15	0.00015370951
102	0x3b1ae49c	0.0023634797
103	0x400e15e9	2.2200873
104	0x3deac77a	0.114638284
105	0x32a18348	1.8802567e-08
106	0x409a3c7c	4.8198833
107	0x3e0a1099	0.13482894
108	0x3e878c0b	0.26474032
109	0x4029ad0e	2.6511874
110	0x3cb65594	0.022257604
111	0x3e980687	0.2969248
112	0x3e34067b	0.17580597
113	0x3630bdfe	2.6336634e-06
114	0x3db5d601	0.08878709
115	0x3da33ffa	0.07971187
116	0x40295e3c	2.6463766
117	0x3b49dc47	0.0030801462
118	0x370e5858	8.484429e-06
119	0x3e36fd6a	0.17870107
120	0x3947c45f	0.00019051273
121	0x3872def9	5.7904956e-05
122	0x3326404a	3.8708357e-08
123	0x3d1e523f	0.038652655
124	0x3e9b3483	0.303135
125	0x3bc28ee8	0.005937446
126	0x3ef31ff1	0.47485307
127	0x2e87f953	6.183378e-11

weight f4 [64, 128]
0	0x3dd3358c	0.10312948
1	0x3d0a2d4a	0.033734597
2	0xbe286068	-0.16443026
3	0xbe40adb2	-0.1881626
4	0x3d3c8dd9	0.046033714
5	0x3daa8878	0.083268106
6	0xbca652fa	-0.020303238
7	0xbd2c6684	-0.042089954
8	0x3df62d33	0.1202034
9	0xbcf500ff	-0.029907702
10	0xbd6e3e7d	-0.058165062
11	0x3e0c8839	0.1372384
12	0x3bb3e69d	0.0054901377
13	0xbd67b1bd	-0.05656599
14	0xbb91c634	-0.0044486765
15	0xbc64fa6b	-0.01397572
16	0x3c48ddeb	0.012259941
17	0xbda05d71	-0.078303225
18	0x3dc14183	0.094363235
19	0xbd0a95bf	-0.033834215
20	0x3d9b0606	0.07569508
21	0x3d246399	0.040134046
22	0x3e079e4e	0.13243982
23	0xbd55c2ab	-0.052187603
24	0x3df222fe	0.118230805
25	0x3d016c9f	0.03159773
26	0x3d98dbf0	0.07463825
27	0xbda0326a	-0.07822116
28	0xbc95264b	-0.018206736
29	0xbd4858e4	-0.048912898
30	0xbc57c8c0	-0.013170421
31	0xbd63f816	-0.055656515
32	0xbb3a3070	-0.0028410219
33	0x3d4b37a3	0.049613606
34	0x3e38bfd7	0.18041931
35	0xbd512584	-0.05106117
36	0x3df72ca2	0.1206906
37	0x3d773c1b	0.060360055
38	0xbe0c2667	-0.13686524
39	0x3dd56ee2	0.1042154
40	0xbdb5ed14	-0.0888311
41	0xbde8e550	-0.11371863
42	0xbbbce669	-0.0057647717
43	0x3baa270c	0.005192643
44	0xbe277b14	-0.16355544
45	0xbdfd822f	-0.12378346
46	0xbdfdf6d4	-0.12400594
47	0xbd17abc5	-0.037029047
48	0x3b1820ca	0.0023212903
49	0x3db40aa1	0.0879109
50	0xbcafbc84	-0.021452196
51	0xbba384ae	-0.004990182
52	0xbc1b54cf	-0.009480669
53	0x3bf89697	0.007586311
54	0xbc2f41cd	-0.0106968405
55	0xbde85505	-0.11344341
56	0x3dcaf933	0.09910812
57	0x3c4f5573	0.01265465
58	0x3db087f2	0.086196795
59	0xbdd12349	-0.10211808
60	0x3bab0548	0.0052191354
61	0x3dd5e301	0.10443688
62	0xbda1b3f8	-0.078956544
63	0xbe0f3bc0	-0.13987637
64	0x3c5c2cab	0.013438384
65	0x3d9559cf	0.0729252
66	0xbdc0e52e	-0.094187126
67	0x3cd513d4	0.026010431
68	0xbd4001f0	-0.046876848
69	0x3d307849	0.043083463
70	0x3cdb987c	0.026806109
71	0x3de9232b	0.11383661
72	0x3a307826	0.00067317707
73	0xbe2ea34d	-0.17054482
74	0x3c016d74	0.007899631
75	0x3de68a57	0.11256855
76	0xbd802df2	-0.062587634
77	0x3d2877d0	0.041129887
78	0xbe0941c8	-0.13404
79	0x3d94ae4e	0.072598085
80	0x3d857042	0.06515552
81	0xbe1916ca	-0.149501
82	0xbd2a05dc	-0.041509494
83	0x3d997502	0.074930206
84	0x3dd00e1a	0.1015894
85	0x3dae5b93	0.0851356
86	0xbe02bccc	-0.12767333
87	0x3df7a726	0.12092428
88	0xbd6ea111	-0.058259074
89	0xbcb88268	-0.02252312
90	0xbde07002	-0.10958864
91	0xbde2f65b	-0.11082145
92	0xba99557f	-0.0011698453
93	0x3e0d230a	0.13782898
94	0xbded38cd	-0.115830995
95	0x3de58364	0.112067014
96	0x3e3ed92a	0.18637529
97	0xbd8d8d48	-0.06911713
98	0x3d7c8cd3	0.061657738
99	0xbd93d54c	-0.072184175
100	0xbe1a3207	-0.15058146
101	0xbe10e6d2	-0.14150551
102	0xbd36b405	-0.044605274
103	0xbe05e97f	-0.13077353
104	0xbd599881	-0.053123955
105	0x3d6d45aa	0.057927765
106	0x3d8114ce	0.06302796
107	0xbe4e29b4	-0.20133096
108	0x3dcc9548	0.09989411
109	0xbc2700e0	-0.01019308
110	0x3d62c969	0.05536786
111	0x3d922f53	0.07137933
112	0xbdca4983	-0.098773025
113	0xbd94a6c1	-0.07258368
114	0x3d027cd1	0.031857315
115	0xbc3e8559	-0.011628472
116	0xbd956338	-0.07294315
117	0xbd8a3104	-0.0674763
118	0x3bb78d68	0.0056015737
119	0xbda10eb0	-0.078641295
120	0x3c4bff4b	0.012451003
121	0xbdcdddba	-0.100520566
122	0x3e07b6c3	0.13253312
123	0x3d23dda9	0.040006313
124	0xbd1c4681	-0.038153175
125	0xbe04d2b8	-0.12971008
126	0x3e2d9f36	0.16955265
127	0xbddc52b9	-0.107579656
128	0xbe0f3b3c	-0.1398744
129	0x3d4026fa	0.04691217
130	0xbd8ab927	-0.06773596
131	0x3de76908	0.1129933
132	0xbd10d478	-0.035358876
133	0xbe13a237	-0.14417349
134	0xbe0d792c	-0.13815755
135	0xbd8c569d	-0.06852458
136	0x3df578ae	0.119859084
137	0x3d7a9c34	0.061184123
138	0xbdd969eb	-0.106159054
139	0x3e00f2b2	0.12592581
140	0xbc80698b	-0.015675327
141	0x3daae935	0.08345262
142	0x3d404164	0.04693736
143	0x3d33ed0f	0.04392725
144	0x3da98f39	0.08279271
145	0x3da61e17	0.08111208
146	0x3c109df8	0.008826725
147	0x3d9dae6b	0.07699283
148	0xbd357a1f	-0.044305917
149	0xbdb35d78	-0.08758062
150	0xbe078303	-0.13233571
151	0xbd5a37e2	-0.05327595
152	0x3db412c0	0.08792639
153	0x3da2615d	0.07928727
154	0x3e035cd1	0.12828375
155	0x3ce5be61	0.028044881
156	0x3de9d5b3	0.11417713
157	0x3dc32b27	0.09529715
158	0xbccf3ba0	-0.025296986
159	0xbe16dd48	-0.1473285
160	0x3d37d52c	0.04488103
161	0x3ca7fc45	0.020506034
162	0xbe19ee81	-0.15032388
163	0x3df1ade9	0.11800749
164	0x3e2f7b0b	0.17136781
165	0x3dd0444e	0.10169278
166	0xbce5c757	-0.028049154
167	0xbcb61658	-0.022227451
168	0x3dab32c1	0.0835929
169	0x3de44f67	0.11147957
170	0x3cb1ebfb	0.02171897
171	0xbe2c6bff	-0.16838072
172	0xbd9ac6c4	-0.07557443
173	0xbd9f6d43	-0.07784512
174	0xbe0b4a42	-0.13602546
175	0xbe2cc09c	-0.1687035
176	0xbbc128b1	-0.0058947434
177	0x3e096224	0.13416344
178	0x3c95c4fd	0.018282408
179	0x3dda8e12	0.10671629
180	0xbd0c37de	-0.034232967
181	0xbdbb36fe	-0.09141348
182	0x3e15543d	0.14582916
183	0x3db370b3	0.0876173
184	0xbd08daf0	-0.03341192
185	0x3b186fbb	0.0023259956
186	0x3d622a04	0.05521585
187	0xbe03843a	-0.12843409
188	0xbce5dfbb	-0.028060785
189	0xbdd7e521	-0.1054175
190	0x3d08bd31	0.033383552
191	0xbdd61a11	-0.104541905
192	0xbd9f7557	-0.07786053
193	0xbcd47a51	-0.025937231
194	0xbe17f7ba	-0.14840594
195	0x3b27bb4a	0.002559381
196	0xbd7c5fa0	-0.061614633
197	0xbc1967a6	-0.009363091
198	0x3d41da8b	0.04732756
199	0x3e230e8b	0.15923516
200	0x3d0c69be	0.03428053
201	0x3d9d28a0	0.07673764
202	0xbdbccc7c	-0.0921869
203	0x3d425d80	0.04745245
204	0x3c7675f0	0.015042767
205	0x3e00c8f9	0.12576665
206	0xbde4e155	-0.11175791
207	0x3bfbaeab	0.007680734
208	0xbcf79665	-0.03022308
209	0xbdf6ee4b	-0.120571695
210	0xbe0e1806	-0.13876352
211	0x3ddb5dc4	0.10711244
212	0xbd81780f	-0.063217275
213	0x3d219cb4	0.039456084
214	0xbe079cc1	-0.1324339
215	0x3de7e038	0.11322063
216	0x3d1d03ca	0.03833369
217	0x3db48323	0.08814075
218	0x3df9cb96	0.12197034
219	0xbe0c1afe	-0.13682172
220	0xbace8609	-0.0015756498
221	0xbe11d190	-0.14240098
222	0x3c2f9450	0.010716513
223	0x3df389c1	0.11891509
224	0xbb0eb10a	-0.0021773004
225	0x3d3a4f4e	0.045485787
226	0xbdb0fab1	-0.086415656
227	0xbe1f30ee	-0.15546009
228	0xbd8f1114	-0.06985679
229	0x3dfccd13	0.12343802
230	0x3e04d6e2	0.12972596
231	0x3e2808d6	0.1640962
232	0x3e01c9fa	0.12674704
233	0x3cbc792b	0.023006996
234	0xbe1267c4	-0.14297396
235	0x3cc30149	0.023804324
236	0x3d2c5b0b	0.042079013
237	0x3d72e0a7	0.059296276
238	0xbd9b697f	-0.07588481
239	0xbd7abe4f	-0.06121665
240	0x3d134ff7	0.035964932
241	0xbc36e2e7	-0.011162496
242	0x3d0d33aa	0.0344731
243	0x3b737a99	0.0037151931
244	0x3d3615ff	0.04445457
245	0xbd8df78b	-0.06931981
246	0x3db1a0cf	0.0867325
247	0x3d95e694	0.0731937
248	0xbd706bb9	-0.058696482
249	0xbce342b4	-0.027741767
250	0xbbf38d57	-0.0074326205
251	0x3de4508d	0.11148176
252	0xbdb26a84	-0.087117225
253	0x3df12ec8	0.11776501
254	0xbe50709a	-0.20355454
255	0x3de9278c	0.11384496

bias f4 [64]
0	0x3d3089ce	0.04310017
1	0x3d9d757c	0.07688424
2	0xba9521d3	-0.0011377878
3	0x3dc57aaa	0.09642537
4	0x3b27ab04	0.002558411
5	0x3c967e6f	0.018370835
6	0x3dc3eeb6	0.09567015
7	0x3d980ff5	0.074249186
8	0x3c9de863	0.01927585
9	0x3d9ce0b0	0.07660043
10	0x3db51ef1	0.08843792
11	0xbc5508a3	-0.013002547
12	0x3d91badb	0.07115718
13	0x3d74792f	0.059685882
14	0x3d911495	0.07084004
15	0x3d9ce1bc	0.07660243
16	0x3cd41ab6	0.025891643
17	0x3aacfa56	0.0013197165
18	0x3cde5c8e	0.027143743
19	0x3dcc44c3	0.09974053
20	0x3dd608c8	0.10450894
21	0x3df16886	0.117875144
22	0x3cd5082e	0.026004877
23	0x3d589265	0.052873988
24	0x3da53400	0.08066559
25	0x3d7489da	0.059701778
26	0x3d939fd7	0.072082214
27	0xbc6d7a3e	-0.014494477
28	0x3bfea656	0.0077712936
29	0x3c87cb9e	0.016576584
30	0x3d63bac4	0.055598035
31	0x3d419a60	0.047266364
32	0x3d008448	0.031376153
33	0x3d8a72fb	0.06760212
34	0x3c85dc48	0.01634039
35	0xbc8a4dd6	-0.016882818
36	0xbc05a9d3	-0.008158165
37	0x3cb97ffb	0.022644034
38	0x3d65963d	0.05605148
39	0x3cbe08ba	0.02319752
40	0x3d8d2385	0.068915404
41	0xbca43f6c	-0.020049773
42	0x3b896326	0.0041927276
43	0x3d492844	0.049110666
44	0xbd0e3b94	-0.034724787
45	0x3d90f321	0.07077623
46	0x3d3a37e2	0.04546345
47	0x3cd51476	0.026010733
48	0xbc91b037	-0.017784221
49	0x3be6c5fa	0.0070426436
50	0xbcc3b958	-0.02389209
51	0x3d368b01	0.04456616
52	0x3d041cc9	0.032254014
53	0x3d3df77d	0.0463786
54	0x3d028061	0.031860713
55	0x3cbbc1c2	0.02291954
56	0x3dac6775	0.0841817
57	0x3d176230	0.036958873
58	0x3d8e8f11	0.069608815
59	0x3deeccc9	0.116601534
60	0x3b9f8e65	0.0048692697
61	0x3d31f904	0.04345037
62	0x3d8a2b06	0.06746487
63	0x3c42c2f4	0.011887301

weight f4 [64]
0	0x3f5ff0ea	0.8747698
1	0x3f6bfc7f	0.92182153
2	0x3f712695	0.94199497
3	0x3f839bd5	1.0281931
4	0x3f58379b	0.8445985
5	0x3f544da3	0.82930964
6	0x3f890df0	1.0707378
7	0x3f753d4c	0.95796657
8	0x3f6fab0f	0.9362039
9	0x3f70e96e	0.94106185
10	0x3f6c6d71	0.92354494
11	0x3f628ba0	0.884943
12	0x3f69bceb	0.9130389
13	0x3f867541	1.0504533
14	0x3f80d75f	1.0065726
15	0x3f72c403	0.9483034
16	0x3f6c5128	0.92311335
17	0x3f62091b	0.88295144
18	0x3f6980a5	0.9121192
19	0x3f5d5c15	0.8646863
20	0x3f728d46	0.94746816
21	0x3f7d1736	0.9886354
22	0x3f7024a8	0.93805933
23	0x3f75f713	0.9608013
24	0x3f7d793e	0.99013126
25	0x3f758c5c	0.95917296
26	0x3f6dbee0	0.9286938
27	0x3f58da14	0.8470776
28	0x3f5e96a7	0.8694863
29	0x3f53b27b	0.82694215
30	0x3f828c24	1.0199018
31	0x3f722d09	0.9459997
32	0x3f87deff	1.0614928
33	0x3f6746c0	0.9034233
34	0x3f631c67	0.88715214
35	0x3f728faa	0.94750464
36	0x3f5e8804	0.86926293
37	0x3f54712b	0.8298518
38	0x3f7e14cf	0.992505
39	0x3f60ee4e	0.87863624
40	0x3f622363	0.88335246
41	0x3f59f53f	0.8513984
42	0x3f59a32c	0.85014606
43	0x3f6f59dd	0.93496495
44	0x3f5adcec	0.8549335
45	0x3f7aef6e	0.9802159
46	0x3f74724c	0.95486903
47	0x3f52dcfb	0.8236844
48	0x3f581982	0.8441392
49	0x3f5cf225	0.86306983
50	0x3f4c60d2	0.79835236
51	0x3f699a24	0.91250825
52	0x3f6bd065	0.9211486
53	0x3f6a44cc	0.91511226
54	0x3f5c19a9	0.85976654
55	0x3f6c78bf	0.92371744
56	0x3f80e3e2	1.0069544
57	0x3f5d9ee4	0.8657057
58	0x3f687453	0.90802497
59	0x3f707b47	0.93938106
60	0x3f7ff2b7	0.9997973
61	0x3f8354fa	1.0260308
62	0x3f6d1933	0.92616576
63	0x3f5f4a37	0.8722262

bias f4 [64]
0	0xbd06d8bc	-0.032921538
1	0x3c089128	0.008335389
2	0xbe1d431a	-0.15357628
3	0x3ce1a46b	0.02754422
4	0x3d0b28e5	0.033974547
5	0x3e269c19	0.16270484
6	0xbc221f8a	-0.009895215
7	0x3d45a562	0.048253424
8	0xbcb91270	-0.0225918
9	0x3dce402e	0.10070835
10	0x3cbd8fe1	0.023139896
11	0xbdf19fc7	-0.11798053
12	0x3d3c2eb4	0.045942977
13	0xbc5c1120	-0.013431817
14	0xbc8a5237	-0.016884906
15	0x3da98341	0.08276988
16	0xbdc3b874	-0.09556666
17	0xbd680c37	-0.056652274
18	0xbd904a27	-0.070453934
19	0x3d86e098	0.065858066
20	0x3dc1b4a3	0.09458282
21	0x3d2587d1	0.040412728
22	0xbd4c20bd	-0.04983591
23	0x3d45427e	0.048159115
24	0x3b5bc54b	0.0033534344
25	0xbd4620ec	-0.04837124
26	0x3d6e5ef5	0.058196027
27	0x3c5defd6	0.013545951
28	0x3ddfc404	0.10926059
29	0x3c712125	0.014717375
30	0xbd252b65	-0.040324587
31	0xbde82b3b	-0.113363706
32	0xbd82d5c1	-0.063884266
33	0x3ca0d1e0	0.019631326
34	0x3da4591d	0.080248095
35	0xbe0269a5	-0.12735613
36	0x3d4a43c6	0.04938104
37	0xbcc0c8ea	-0.023533303
38	0xbd6aa51d	-0.05728637
39	0x3dbbcf08	0.091703475
40	0x3d675409	0.056476627
41	0x3dbf5cb4	0.093438536
42	0x3df274a9	0.118386574
43	0xb9a62e4c	-0.0003169648
44	0x3d414be9	0.047191534
45	0xbd301924	-0.042992726
46	0xbde50a41	-0.111835964
47	0x3e0e9c8e	0.13926908
48	0x3db4eddf	0.08834433
49	0xbd226128	-0.039643437
50	0xbe14b728	-0.14522994
51	0x3ddc7db2	0.10766162
52	0x3ced2719	0.028949307
53	0x3bd677b2	0.0065450305
54	0xbc7d3c86	-0.015456324
55	0x3d03e54c	0.032201096
56	0xbcf4deab	-0.029891333
57	0x3dad1992	0.08452143
58	0x3d07cbf5	0.033153493
59	0x3dad9fa3	0.08477714
60	0xbdc7d187	-0.09756761
61	0xbd20fc1c	-0.03930293
62	0xbd006c1a	-0.031353094
63	0x3dfa13b4	0.12210789

running_mean f4 [64]
0	0x3f38d7b9	0.72204167
1	0x3f4a38da	0.78993
2	0x3f96f209	1.1792613
3	0x3f9880b8	1.1914282
4	0x3ef2f983	0.47455987
5	0x3ee8ce90	0.45470095
6	0x3face0de	1.3506124
7	0x3f541989	0.82851464
8	0x3f52c7bc	0.8233602
9	0x3f5d91da	0.86550677
10	0x3f57d199	0.84304196
11	0x3f59e5ac	0.85116076
12	0x3f5c49a0	0.8604984
13	0x3f947ae4	1.1600003
14	0x3f9d08d3	1.2268318
15	0x3f9c4d9d	1.2211186
16	0x3f66b23f	0.9011573
17	0x3f3f4d10	0.74726963
18	0x3f855473	1.0416397
19	0x3f7f4cc3	0.99726504
20	0x3f910d99	1.1332275
21	0x3fa7656c	1.3077826
22	0x3f7c8185	0.9863513
23	0x3f3996b8	0.72495604
24	0x3f9a14e6	1.2037628
25	0x3f2c4dcc	0.6730621
26	0x3f256bdc	0.64617705
27	0x3f08c37c	0.53423285
28	0x3f243b77	0.64153236
29	0x3eeaef24	0.45885575
30	0x3fac1796	1.3444698
31	0x3f877b8a	1.0584576
32	0x3f9e651e	1.2374609
33	0x3f1bdaea	0.6088091
34	0x3f31de8e	0.69480217
35	0x3f8cd1c0	1.1001511
36	0x3f1e145d	0.6174982
37	0x3f2767ec	0.6539295
38	0x3f8633a5	1.0484511
39	0x3f1d3eae	0.61423767
40	0x3f4b425d	0.7939814
41	0x3ea6da91	0.32588628
42	0x3eafac5a	0.3431118
43	0x3f838538	1.027503
44	0x3e9951a8	0.2994511
45	0x3f9cacd4	1.2240243
46	0x3f86d735	1.0534426
47	0x3f252f9e	0.64525783
48	0x3ecb8647	0.39750883
49	0x3f30ddaa	0.6908823
50	0x3ed5dada	0.41768533
51	0x3f400bae	0.7501782
52	0x3f6a0cbf	0.914257
53	0x3f7c6a9e	0.98600185
54	0x3f204471	0.62604433
55	0x3f7266f3	0.9468834
56	0x3fa58b92	1.2933218
57	0x3f2bc6f6	0.67100465
58	0x3fa58809	1.293214
59	0x3f84d930	1.037878
60	0x3f8240e2	1.0176051
61	0x3f8b4d95	1.0883051
62	0x3f4f3d8f	0.80953306
63	0x3f13dc48	0.57758

running_var f4 [64]
0	0x3f4687a1	0.77550703
1	0x3f6534fc	0.8953397
2	0x3fec3ffc	1.8457026
3	0x3fdeaea6	1.7397048
4	0x3f417236	0.755649
5	0x3f380e0d	0.7189644
6	0x40075b81	2.11496
7	0x3f85d191	1.045458
8	0x3f81d59c	1.0143313
9	0x3f9c526a	1.2212651
10	0x3f8966f2	1.0734541
11	0x3f7e3ea8	0.99314356
12	0x3f8b1227	1.0864915
13	0x3fd40c96	1.6566341
14	0x3fe88185	1.8164526
15	0x3ff7b693	1.9352592
16	0x3f95c011	1.1699239
17	0x3f4e0939	0.8048282
18	0x3fcb8371	1.5899488
19	0x3fba796c	1.4568305
20	0x3fd73eec	1.6816077
21	0x40280758	2.6254482
22	0x3fbb6121	1.4639016
23	0x3f9274be	1.1441877
24	0x4004fac6	2.077806
25	0x3f97d1ef	1.1860942
26	0x3f2afb5f	0.6678981
27	0x3f15e5aa	0.58553565
28	0x3f8012d9	1.0005752
29	0x3eb5597c	0.35419834
30	0x40073645	2.1126873
31	0x3fd016e9	1.6256992
32	0x40068136	2.1016364
33	0x3f1c41d5	0.6103795
34	0x3f88aaeb	1.067716
35	0x3fe57828	1.7927294
36	0x3f5b8a0c	0.8575752
37	0x3f355fce	0.7084931
38	0x3fbc5e13	1.4716209
39	0x3f29f6ef	0.66392416
40	0x3f82e75c	1.0226855
41	0x3e702c96	0.23454508
42	0x3ea355ed	0.31901494
43	0x3fc75d07	1.5575265
44	0x3ec0b69f	0.3763933
45	0x3fefb288	1.8726358
46	0x3fb6ba97	1.4275693
47	0x3f852dcb	1.04046
48	0x3f12988a	0.57264006
49	0x3f61481d	0.8800066
50	0x3f3bd1c8	0.73366976
51	0x3f9a8c7f	1.2074126
52	0x40145d80	2.3182068
53	0x3f9faf47	1.2475365
54	0x3f2986e8	0.66221476
55	0x3f9506c0	1.1642685
56	0x40038d86	2.055513
57	0x3f412357	0.7544455
58	0x400bc055	2.183614
59	0x3fd2e741	1.6476823
60	0x3fa4ad48	1.2865381
61	0x3fc07597	1.5035886
62	0x3fd734c3	1.6812977
63	0x3fa9699a	1.3235352

weight f4 [32, 64]
0	0x3e1cffac	0.15331906
1	0xbbcb02e5	-0.0061954134
2	0xbe72d5cb	-0.23714368
3	0x3d6b1263	0.05739058
4	0xbe22783e	-0.15866181
5	0xbe5d1c26	-0.21592769
6	0x3e3387d9	0.1753229
7	0xbdd84e45	-0.10561804
8	0x3dc3e508	0.095651686
9	0x3dded74e	0.1088091
10	0x3dc85100	0.097810745
11	0x3d34f681	0.044180397
12	0x3e052026	0.13000545
13	0x3e316428	0.17323363
14	0x3dbd41d7	0.092410736
15	0x3e7301f0	0.23731208
16	0xbda685b2	-0.08130969
17	0x3dd5d25e	0.10440515
18	0xbd018d5e	-0.03162896
19	0x3e41d0ea	0.1892735
20	0x3d2cfbc3	0.042232286
21	0x3e170668	0.14748538
22	0xbb6e6b54	-0.003637989
23	0x3dff29da	0.124591544
24	0xbe605bfe	-0.21910092
25	0xbe9dea8b	-0.30843005
26	0xbe8c4a9d	-0.27400675
27	0x3d9e1121	0.07718111
28	0xbe066083	-0.13122754
29	0xbe104bcf	-0.14091419
30	0x3d314d57	0.043286648
31	0xbe659ef5	-0.22423919
32	0xbb185c68	-0.0023248438
33	0xbe4fd8e1	-0.20297576
34	0x3e2e0388	0.16993535
35	0xbd8aa065	-0.06768874
36	0xbe167f5d	-0.14697023
37	0x3c9d8428	0.019228056
38	0x3d62b441	0.055347685
39	0x3e001196	0.12506709
40	0xbd99d9df	-0.07512259
41	0xbdc4eadb	-0.096151076
42	0x3c8e52eb	0.017373523
43	0xbe67cfb1	-0.22637822
44	0xbc482c6f	-0.012217625
45	0x3e614a3c	0.22000974
46	0xbe89be22	-0.26902872
47	0xbb1318b0	-0.0022445135
48	0x3dba7755	0.09104792
49	0xbe9355a6	-0.28776282
50	0xbdab2464	-0.0835655
51	0xbddc1cd9	-0.1074769
52	0xbe8108c8	-0.25202012
53	0xbdd3c935	-0.103411116
54	0xbd701b9e	-0.058620088
55	0x3e7561df	0.23963116
56	0x3ccc3da9	0.024931746
57	0x3d9cbcb9	0.076531835
58	0xbd56ed60	-0.052472472
59	0xbe6570eb	-0.22406356
60	0xbdb60925	-0.08888463
61	0x3e51947f	0.20466803
62	0x3ddf7b42	0.109121814
63	0x3da217e4	0.07914713
64	0x3e1256f0	0.14290977
65	0xbe842d11	-0.25815633
66	0x3deb46b1	0.11488093
67	0xbddd9244	-0.108189136
68	0x3d158671	0.036505166
69	0x3da37ee3	0.07983186
70	0x3d8788ae	0.066178665
71	0x3cca35b5	0.024683813
72	0x3e3856bf	0.18001841
73	0xbd44191e	-0.047875516
74	0xbde461c9	-0.111514635
75	0x3d2af505	0.041737575
76	0x3e0a3719	0.1349758
77	0x3d3e5e77	0.046476807
78	0xbd95f144	-0.073214084
79	0xbdb9ec9c	-0.09078333
80	0x3ccfd277	0.025368912
81	0xbda0e34c	-0.078558534
82	0x3d2b3f4d	0.041808415
83	0xbc97c8e4	-0.01852841
84	0x3d68a598	0.056798548
85	0x3d7aed5c	0.06126152
86	0x3e3f526c	0.18683785
87	0xba8e0be6	-0.0010837286
88	0x3da0db45	0.07854322
89	0x3d41177f	0.04714155
90	0xbda37c68	-0.07982713
91	0xbe1085c2	-0.14113525
92	0x3d062568	0.032750517
93	0xbe19546f	-0.14973615
94	0xbe7ce620	-0.2469716
95	0x3da5b948	0.0809198
96	0xbca9e3d5	-0.020738522
97	0x3e0d6ada	0.13810292
98	0x3de3bea4	0.11120346
99	0x3d71dcbf	0.05904841
100	0xbe005305	-0.1253167
101	0x3d2c1466	0.04201164
102	0xbd878763	-0.0661762
103	0xbd9531cb	-0.07284888
104	0xbe264273	-0.16236286
105	0x3c7964bf	0.015221774
106	0xbd8855fc	-0.06657025
107	0xbd11bd70	-0.035581052
108	0x3daa2813	0.08308425
109	0x3c506fef	0.012722
110	0xbb01b934	-0.0019794228
111	0xbdd9a0c2	-0.10626365
112	0x3dead083	0.11465552
113	0xbda05d01	-0.07830239
114	0xbe05e81d	-0.13076825
115	0x3d858095	0.06518666
116	0xbc373668	-0.011182405
117	0xbdde140a	-0.10843666
118	0x3d92b913	0.07164206
119	0xbe6dbd16	-0.23216662
120	0xbcc0e62c	-0.023547255
121	0x3c78a2bf	0.01517552
122	0xbe073abe	-0.13206002
123	0x3e2ba8aa	0.16763559
124	0xbd1498d4	-0.03627856
125	0xbdb33824	-0.08750942
126	0x3e485893	0.19565038
127	0x3dc500fe	0.0961933
128	0xbd4695da	-0.048482753
129	0x3e2c1665	0.16805418
130	0x3da9c2f4	0.082891375
131	0xbdf43ced	-0.11925683
132	0xbda98b82	-0.08278562
133	0xbe07305b	-0.1320204
134	0x3e327128	0.17425978
135	0x3d5d3d02	0.05401326
136	0xbe4e429a	-0.20142594
137	0xbc8497a9	-0.016185598
138	0xbe34834e	-0.17628214
139	0x3e04dcaa	0.12974802
140	0xbbd2d5b0	-0.006434165
141	0x3cc38081	0.023864986
142	0xbd9aa52a	-0.07551034
143	0x3e3af668	0.18258059
144	0xbd83f856	-0.06443851
145	0xbe19d568	-0.15022814
146	0xbdaa1991	-0.08305658
147	0xbdb46dd9	-0.08810014
148	0x3e5af919	0.21384086
149	0xbe7b2187	-0.24524508
150	0x3b981761	0.004641459
151	0xbdf4862f	-0.11939656
152	0xbe79f3a6	-0.24409351
153	0xbdb076ab	-0.08616384
154	0xbe319bc3	-0.17344575
155	0xbdf215e7	-0.11820584
156	0xbe6caba0	-0.23112345
157	0xbcbc228c	-0.022965692
158	0x3e47881c	0.19485515
159	0xbdd74727	-0.10511618
160	0x3e24b27e	0.16083714
161	0xbc2e691a	-0.010645175
162	0xbe143dd2	-0.14476708
163	0xbdfaf4bc	-0.12253711
164	0xbbe300e7	-0.006927598
165	0x3d8e2405	0.06940464
166	0xbde80228	-0.11328536
167	0x3e04fc77	0.12986933
168	0xbe920449	-0.28518894
169	0x3d8dec09	0.06929786
170	0x3dd90190	0.10596001
171	0xbe4e9851	-0.20175292
172	0x3e00d208	0.1258012
173	0x3c2fcfc1	0.010730685
174	0xbe91d6ae	-0.284841
175	0x3d040e1d	0.032240022
176	0x3d960d2b	0.0732673
177	0xbe417417	-0.18891941
178	0xbd1133bb	-0.035449725
179	0xbd2ce870	-0.042213857
180	0xbe0028c3	-0.1251555
181	0x3e16a10e	0.14709875
182	0xbdec513b	-0.11538931
183	0x3d50cbe9	0.050975714
184	0x3d779733	0.06044693
185	0xbc9dd874	-0.019268252
186	0xbe4d6f97	-0.200621
187	0x3dcac47b	0.09900757
188	0xbd68da6d	-0.056848932
189	0xbdf18034	-0.11792031
190	0xbdc38f7c	-0.09548852
191	0xbe0590a5	-0.13043459
192	0xbe53167e	-0.20614049
193	0x3e359ff7	0.17736803
194	0xbe61390a	-0.21994415
195	0xbdbc9ba8	-0.092093766
196	0x3e4e55e5	0.20149954
197	0xbd589554	-0.052876785
198	0x3d6ae363	0.05734576
199	0xbe40d19e	-0.18829963
200	0xbd883fbd	-0.06652782
201	0x3d387e8f	0.04504257
202	0xbe629712	-0.22127941
203	0xbdd9a027	-0.1062625
204	0xbe1f92bc	-0.15583318
205	0x3e4ecb01	0.20194627
206	0x3e2e8942	0.17044547
207	0x3e4c79a3	0.19968276
208	0xbe52044b	-0.2050945
209	0x3bfd732b	0.0077346764
210	0xbe46e0c4	-0.19421679
211	0x3e222db6	0.1583775
212	0x3d021a6d	0.031763483
213	0xbe6f7289	-0.23383535
214	0xbe1f609b	-0.15564196
215	0xbe3e88a7	-0.18606816
216	0xbd9c2a92	-0.07625307
217	0xbe1f27f2	-0.15542582
218	0xbe4476c9	-0.19185938
219	0x3d6634de	0.05620276
220	0xbe6d00e7	-0.23144875
221	0xbe159172	-0.14606264
222	0x3e011d46	0.12608823
223	0xbd9e7327	-0.07736807
224	0x3cf58d19	0.029974507
225	0xbdbca156	-0.0921046
226	0x3e030216	0.12793764
227	0x3e2395de	0.15975139
228	0x3cf63d53	0.030058539
229	0xbe4df0ce	-0.20111391
230	0xbe052423	-0.13002066
231	0xbd63b482	-0.055592068
232	0xbc85a47c	-0.016313784
233	0x3e3e3bce	0.18577501
234	0xbe356fb3	-0.17718391
235	0x3cf40783	0.029788738
236	0xbcf38226	-0.029725146
237	0xbe57da79	-0.21079434
238	0xbe08dc39	-0.13365258
239	0x3e48c5c9	0.19606699
240	0xba63e34f	-0.00086932344
241	0xbdabfb05	-0.083974876
242	0xbe2fdcfd	-0.17174144
243	0xbda5407c	-0.0806894
244	0xbe270cc6	-0.16313466
245	0x3e26f466	0.16304168
246	0xbc79350a	-0.015210399
247	0x3e128171	0.1430719
248	0x3e47c467	0.19508515
249	0x3e1f7b65	0.15574415
250	0xbe639942	-0.22226432
251	0xbd856928	-0.065141976
252	0xbd7b4655	-0.06134637
253	0xbe0a91ca	-0.13532177
254	0xbe4a3326	-0.19746074
255	0x3e312279	0.17298307

bias f4 [32]
0	0x3e1ffb62	0.15623239
1	0x3e647a53	0.22312288
2	0x3e03a574	0.12856084
3	0x3dba2078	0.09088224
4	0x3dff35a5	0.12461404
5	0x3e1f06c5	0.15529926
6	0x3da8870f	0.082288854
7	0x3dffc67b	0.12489029
8	0x3ddb8545	0.107187785
9	0x3e334590	0.17507005
10	0x3e612d58	0.21989954
11	0x3e189e7c	0.14904207
12	0x3da36c82	0.079796806
13	0x3e10c082	0.14135936
14	0x3e30ca6f	0.17264722
15	0x3dcb1e42	0.099178806
16	0x3e4296a4	0.19002777
17	0x3e4955e1	0.19661666
18	0x3e87a04c	0.26489484
19	0x3df2a2c1	0.11847449
20	0x3e0bb109	0.13641752
21	0x3dd06cb1	0.10176981
22	0x3e3b2def	0.18279241
23	0x3e3a07c2	0.18167022
24	0x3e656df5	0.22405227
25	0x3e2e0a9f	0.16996239
26	0x3db70eb2	0.0893835
27	0x3e470416	0.19435152
28	0x3de4713b	0.111544095
29	0x3e4b486e	0.19851848
30	0x3e96db1b	0.2946404
31	0x3e2ff6ab	0.1718394

weight f4 [32]
0	0x3f97738e	1.183214
1	0x3f89425f	1.072338
2	0x3faf6b60	1.3704643
3	0x3f9c2a4d	1.2200409
4	0x3fa09681	1.254593
5	0x3f9ec74b	1.2404569
6	0x3fa12723	1.2590069
7	0x3fa30356	1.2735393
8	0x3f7a56a0	0.9778843
9	0x3f8e7b7b	1.1131433
10	0x3fa3e766	1.2804992
11	0x3f9bcb42	1.2171404
12	0x3f89d556	1.076823
13	0x3f95b7b7	1.169669
14	0x3f952f55	1.165507
15	0x3f916be5	1.1361052
16	0x3fbfe6c6	1.4992301
17	0x3f970297	1.1797665
18	0x3f9aa3a6	1.2081192
19	0x3f972e69	1.1811038
20	0x3f96d08b	1.1782392
21	0x3f9337cc	1.1501403
22	0x3fbad9c8	1.4597712
23	0x3f913a1f	1.1345862
24	0x3fd65147	1.6743554
25	0x3f99e5c3	1.2023243
26	0x3f9825c2	1.1886523
27	0x3faf670c	1.3703322
28	0x3f84867a	1.0353539
29	0x3fa36f30	1.2768307
30	0x3f9ca4fc	1.2237849
31	0x3f98f692	1.1950247

bias f4 [32]
0	0xbadb6f89	-0.0016741614
1	0x3d3bbbe3	0.04583348
2	0xbc1dd2da	-0.00963279
3	0x3b6796e4	0.003533774
4	0xbb9b1790	-0.0047330335
5	0x3d5f478e	0.0545116
6	0xbc93e42f	-0.018053142
7	0xbcb2d746	-0.021831166
8	0x3d351633	0.044210624
9	0x3bb4939e	0.0055107614
10	0x3d8e9bbb	0.06963297
11	0x3d4a4525	0.049382348
12	0x3d1a567f	0.037680145
13	0x3cbb8aaf	0.022893278
14	0x3d1b9396	0.037982546
15	0x3d1f08c3	0.038826715
16	0x3b0b3c0a	0.0021245503
17	0x3d282220	0.04104817
18	0x3d403b76	0.046931706
19	0xbd0169e0	-0.03159511
20	0x3d18d56a	0.037312903
21	0x3cbc3fb2	0.022979591
22	0x3d9d016d	0.076662876
23	0x3d2c4dac	0.04206626
24	0xbceb040d	-0.028688455
25	0x3d30461d	0.043035615
26	0xbc7d0c48	-0.015444823
27	0xbcb82446	-0.022478234
28	0xbcdb9c90	-0.026808053
29	0x3d381157	0.04493841
30	0x3d7ca735	0.0616829
31	0x3d47ce55	0.048780758

running_mean f4 [32]
0	0x3fcdf476	1.6090229
1	0x3f7c6318	0.98588705
2	0x3fc9dc45	1.5770346
3	0x3fecb6a5	1.8493239
4	0x3fc84a8f	1.5647753
5	0x3fb9b91b	1.4509615
6	0x3ff7c9c0	1.9358444
7	0x3fcf1197	1.6177243
8	0x3f61046a	0.8789736
9	0x4000e3f7	2.0139139
10	0x3f881f74	1.0634599
11	0x3f82c315	1.0215784
12	0x3f69fd19	0.9140182
13	0x3fb6f0d9	1.4292251
14	0x3fa76532	1.3077757
15	0x3f8f24e0	1.1183128
16	0x3fab1bd3	1.3367866
17	0x3f9b88c6	1.2151115
18	0x3f98ffc6	1.1953056
19	0x3fca2ae1	1.5794336
20	0x3f911fa0	1.1337776
21	0x3f9ed8c1	1.2409898
22	0x3f6b1128	0.91823053
23	0x3fb60fc9	1.4223567
24	0x3fd90cde	1.6957052
25	0x3fb0caff	1.381195
26	0x3fbd31c7	1.4780816
27	0x3fbc7764	1.4723935
28	0x3f937a40	1.1521683
29	0x3f668baf	0.9005689
30	0x3f963ae2	1.173672
31	0x3fabe444	1.3429036

running_var f4 [32]
0	0x403ed3d4	2.981679
1	0x3fe1488d	1.7600266
2	0x4032ac13	2.7917526
3	0x4078cb63	3.8874137
4	0x4033c3ef	2.8088338
5	0x4028c53a	2.6370378
6	0x4085139e	4.1586447
7	0x403f2f9d	2.987281
8	0x3f88a77a	1.067611
9	0x409d9087	4.9238925
10	0x3fb43912	1.4079916
11	0x3fb96e82	1.4486849
12	0x3faa1a28	1.3289232
13	0x40247e2b	2.5702007
14	0x4010ba4d	2.261371
15	0x3fdbec71	1.7181531
16	0x3ffa6130	1.9560909
17	0x3ff1fd90	1.8905506
18	0x3fdd6ff9	1.7299796
19	0x403a2a2f	2.9088247
20	0x3fdca502	1.7237856
21	0x3ffc4e19	1.9711334
22	0x3f8d4150	1.1035557
23	0x4028018f	2.6250951
24	0x404bc7ba	3.1840653
25	0x401867dc	2.381339
26	0x401e5509	2.4739401
27	0x401c3321	2.4406207
28	0x3fda08d6	1.7033947
29	0x3f7dd528	0.99153376
30	0x3fdce430	1.7257137
31	0x4010a70c	2.2601957

weight f4 [1, 32]
0	0xbf0e0755	-0.5547994
1	0x3e3779bc	0.17917532
2	0xbebfed52	-0.3748575
3	0xbf24460e	-0.64169395
4	0xbed55bf3	-0.41671714
5	0x3edaae86	0.42711276
6	0xbf1cf6d3	-0.61314124
7	0xbeca9180	-0.39564133
8	0x3e13682a	0.14395204
9	0xbef29482	-0.47378927
10	0x3e8e9baf	0.27853152
11	0x3e73f0a4	0.23822266
12	0x3eae58de	0.34052175
13	0x3ee43009	0.44567898
14	0x3edb08fd	0.42780295
15	0x3ec00db5	0.37510458
16	0xbea3408f	-0.31885192
17	0x3f07c277	0.53031105
18	0x3e7dab4d	0.24772377
19	0xbf0779b9	-0.5292011
20	0x3f0a65ec	0.5406177
21	0x3ef48d33	0.47763976
22	0x3e7a23c0	0.244277
23	0x3f0869b8	0.53286314
24	0xbecd8ee1	-0.4014807
25	0x3ef590eb	0.47962126
26	0xbe9f9ee1	-0.31175902
27	0xbea5aced	-0.32358494
28	0xbe413df7	-0.18871294
29	0x3e4d40a7	0.20044194
30	0x3e803e77	0.25047657
31	0x3ee4c426	0.446809
