model/ai_model_state_20250729_044500.pt (torch, 70585 bytes, 19 tensors)

network.0.weight f4 [128, 32]
00000000: dc4a 203e 3d01 423e 5a4f fbbd 786b 00be
00000010: 0bb0 a2bc 0807 f93c e2be 033e d2b5 a03d
00000020: f3b0 333d 14c9 c13d a3dd ddbd 75ec 3fab
00000030: e495 2130 76c0 b8bd 3549 e4a6 5bbb c329
00000040: 2fd7 88af ab69 eba5 0929 39b0 6e38 8b3c
00000050: a07e 8ea6 af6c 6834 33f9 94ac bbcd dba7
00000060: fed4 b2a9 160f 652a aa64 20a9 9ac8 fea6
00000070: 81fd 3d34 269f 2bbe bb3f b73c dbb8 db3d
00000080: fb5d 95bd 0f14 be3e 5d3f d23c 8a2b 473e
00000090: eacd d0bd 0dd1 5c3d 6aaa 0bbd 968a acbd
000000a0: 17b5 dc3c 5d07 983c 99e2 413d c53e f32c
000000b0: 42e9 0028 3ff9 1d3e 5383 7127 ee80 9db5
000000c0: 3820 5327 6e88 1cb6 ecb3 3337 5d4b 33bc
000000d0: 5d4e 3e28 e103 acac 5660 f4a5 6ee5 01b8
000000e0: a82a 3d9e 001d 8eac d3c8 a2b6 9e28 5a26
000000f0: 7442 aba7 569f 35bd b347 04bd 20b9 eabc
00000100: af3d c63d 58b5 e13c e4f9 0ebd 3740 b8bd
00000110: c0ea 0abd b353 03be 071a d0bd 1a6b 813d
00000120: 317b 1dbe 118d debd cbc0 143e 72b2 f325
00000130: e1dd b526 9822 0329 9b40 29b5 6054 2ca7
00000140: 0721 4837 4eea 39b0 edc3 01a9 1d0b d5bc
00000150: 4234 4fa5 762b c427 34ea 022e fb4e c337
00000160: ce95 0eaa 69fe 8fa6 d560 dd27 de2b 2aa9
00000170: d1b4 1128 74f2 0e3d f8a8 fcbd 0c94 f83c
00000180: 3d3c d8bd 819a 4cbe 13cf b63d cb66 00be
00000190: fa7c bebd 6ae6 363d 9d9b 413d 5df5 c23d
000001a0: b827 bf3d 6b9e d5bd a03a 46bd cc53 7b2c
000001b0: 439c 892f f0ca cabd 9dd4 0226 8d7c 12ae
000001c0: 6073 6e2b 36d6 85ad cba9 3925 4e1b 4ebd
000001d0: 7f49 00b6 3fb5 2836 b408 7dab 58d2 61a9
000001e0: 30c2 62ad b493 18a5 ca86 2fab 19f4 eda6
000001f0: 9974 ddac 6ca8 ebbd 16c0 103e e8ce e93c
00000200: 710f 073c 7fa5 713d 587c 263e 0166 a8bd
00000210: 641e 173e a87a e0bc 3b74 00bd ee94 5c2b
00000220: 7ca6 393d e5d7 c025 db5e c2bc 1c6c b235
00000230: 7435 5428 d977 7ba8 59f0 0227 97cb 2e27
00000240: 266a 64a6 6b60 2ab6 04ac 8c26 1612 3c25
00000250: 08ee 8327 d33b ee37 9449 8425 772e bab6
00000260: 039e 70b2 8d42 39ac 8fe6 7e30 7770 6a33
00000270: 4083 e1b7 b1ad 21ba 3a0d f4ba 0599 89bd
00000280: d5fb fbbd a4af 02bd 8c5d a13d fb3b 80be
00000290: 0748 b3bd c390 29be a045 07be 0861 25bd
000002a0: 6111 b33c 46b0 723c f4ea bd3b ccb6 1733
000002b0: 75b5 aea7 f328 3a3d c624 782b 581d e837
000002c0: 1a6d 1027 2948 9f34 a8ef 7724 45ca 7e3c
000002d0: f3cb 9032 ccb9 6fb3 f9a5 ada8 da09 692a
000002e0: 6035 4bae c042 16b0 243b 46b6 f039 58a8
000002f0: 3f9d 9ba9 9f92 c03d 3fca f33b 289b b93d
00000300: 966c 7f3d 7f3e 563d 225f 84bd a700 e73d
00000310: 354b 98bd 346f c33d c16e 893d 5838 09be
00000320: b264 713d 88f5 413d e0e5 633e 07b3 762c
00000330: 9f50 1429 0f46 94bd 4911 2a29 6406 a828
00000340: 2f57 9429 04cc f2a6 9c9c 4926 1e7d eb3d
00000350: 41d5 29a6 19a2 5f2b c4b9 2d29 812f 2225
00000360: e66f 4727 8198 5fb3 0937 a5a6 9d20 d0b6
00000370: 0c35 0833 0b31 a1bc 98bb 7d3d 3a80 943c
00000380: 4bec 74bb fdc9 89bd 8661 39bd d809 1bbc
00000390: d920 b0bd bf14 3abe f2cc 2ebd f0dd 2cbe
000003a0: baa4 dabc 1119 5dbd cbd1 953d 3f5c 6227
000003b0: e708 15a9 047b 6224 1787 ada9 57b5 0929
000003c0: ad5c a4a8 c5e3 cfb1 d50b 7a2e 96c0 9fbc
000003d0: 9834 5b28 7654 eb26 8860 9d37 3408 e3b7
000003e0: 805d d9a3 3e9c 7129 a8ab 2925 535e 2128
000003f0: 6347 5b2f b6ea c9bd b2ae 103e 38e5 68bd
0.15653557 0.18945785 -0.122709945 -0.12540996 -0.019859334 0.03039886 0.12865785 0.078471795
0.043869924 0.09462181 -0.108332895 -6.818498e-13 5.8784466e-10 -0.09021084 -1.5840521e-15 8.6922406e-14
-2.4891153e-10 -4.0837605e-16 -6.736092e-10 0.016994681 -9.887551e-16 2.1646223e-07 -4.2340797e-12 -6.1007764e-15
-7.941736e-14 2.034452e-13 -3.561445e-14 -1.7679164e-15 1.7694221e-07 -0.16759929 0.022369256 0.10728618
-0.07293316 0.37124678 0.02566498 0.19450203 -0.10195525 0.053910304 -0.034098066 -0.08424871
0.02694182 0.018558199 0.04733524 6.913444e-12 7.156007e-15 0.15427111 3.351666e-15 -1.1734935e-06
2.9299598e-15 -2.3325224e-06 1.0711123e-05 -0.010943261 1.0564111e-14 -4.8889647e-12 -4.2392533e-16 -3.096967e-05
-1.0014398e-20 -4.0391024e-12 -4.8513552e-06 7.568899e-16 -4.7534083e-15 -0.044341408 -0.03229494 -0.028652728
0.09679734 0.027552292 -0.034906283 -0.08996623 -0.03391528 -0.12824897 -0.10161214 0.06319256
-0.15379025 -0.1086675 0.1452667 4.22747e-16 1.2619538e-15 2.911785e-14 -6.305142e-07 -2.3915535e-15
1.1928619e-05 -6.7635575e-10 -2.8813693e-14 -0.026006276 -1.7972094e-16 5.444805e-15 2.9766592e-11 2.328259e-05
-1.2664108e-13 -9.991576e-16 6.1444808e-15 -3.778563e-14 8.088325e-15 0.03489919 -0.12336916 0.030344032
-0.105583645 -0.19980814 0.08926215 -0.12539212 -0.09301181 0.044653334 0.047267545 0.095194556
0.093337476 -0.104306065 -0.048395753 3.5715762e-12 2.5031185e-10 -0.099019885 4.5390955e-16 -3.330718e-11
8.47147e-13 -1.5215478e-11 1.610372e-16 -0.05031901 -1.9116267e-06 2.513945e-06 -8.9895734e-13 -5.014248e-14
-1.2889731e-11 -1.3233942e-16 -6.2359547e-13 -1.6511341e-15 -6.2941427e-12 -0.11506733 0.14135775 0.028541043
0.008243428 0.05899572 0.16258371 -0.08222581 0.14757687 -0.027402237 -0.031360846 7.836638e-13
0.045324787 3.3452987e-16 -0.023726871 1.3293497e-06 1.1779955e-14 -1.3959287e-14 1.8171417e-15 2.4257717e-15
-7.924725e-16 -2.5388097e-06 9.761076e-16 1.6312528e-16 3.661788e-15 2.8399669e-05 2.2948208e-16 -5.548641e-06
-1.4005766e-08 -2.6327024e-12 9.2732305e-10 5.4584657e-08 -2.6883208e-05 -0.00061675446 -0.0018619664 -0.06718639
-0.123038925 -0.031905785 0.07879171 -0.2504576 -0.087539725 -0.16559128 -0.13210154 -0.04037574
0.021858873 0.014812535 0.005795831 3.532368e-08 -4.8491438e-15 0.04544921 8.815833e-13 2.767022e-05
2.0043159e-15 2.966856e-07 5.3762584e-17 0.0155511545 1.6856552e-08 -5.5815505e-08 -1.9278837e-14 2.0697975e-13
-4.6204263e-11 -5.466454e-10 -2.9538724e-06 -1.2002972e-14 -6.9106606e-14 0.09402966 0.007439881 0.09062797
0.062359415 0.052305695 -0.06463458 0.11279421 -0.074362196 0.09542695 0.06710578 -0.134004
0.05893392 0.047353297 0.22255659 3.5058083e-12 3.293253e-14 -0.07239925 3.7762575e-14 1.8654518e-14
6.587644e-14 -1.6847422e-15 6.994813e-16 0.114984736 -5.8922666e-16 7.945047e-13 3.8574843e-14 1.4067355e-16
2.7677458e-15 -5.2059935e-08 -1.1464092e-15 -6.2026797e-06 3.1713213e-08 -0.019676706 0.06194648 0.01812755
-0.0037372287 -0.06727979 -0.04525902 -0.009462796 -0.08600015 -0.18171977 -0.04267592 -0.16881537
-0.026689876 -0.053978983 0.073154055 3.1413807e-15 -3.3092368e-14 4.9110136e-17 -7.706178e-14 3.0577398e-14
-1.824785e-14 -6.0503873e-09 5.6853928e-11 -0.019501012 1.21683466e-14 1.6329294e-15 1.876081e-05 -2.7064329e-05
-2.3566786e-17 5.3648268e-14 1.4716573e-16 8.957749e-15 1.9943296e-10 -0.09859221 0.14129141 -0.056859225

network.0.bias f4 [128]
00000000: 680b a33d 7551 223c 2289 9bbc d65b e73d
00000010: 307a c0bd 2990 47bc 5dac 69bd 39f3 8b3d
00000020: 917c 733c cf1f 1fa8 839a 8bbc 5653 8cbc
00000030: ca45 063d 6ba0 7bbc 5d44 6abd 860a a53c
00000040: feb6 0e3e 1c97 d63d 4dbc 353e c4ba 973d
00000050: a397 483d d948 45be c7f4 c93d 67b5 3bb6
00000060: 2839 70bd b8f4 1bbe 0522 19bc 4cc7 903c
00000070: 914a e5a6 8ffb 00a4 c1f5 2dbe 3b30 dd3c
00000080: a859 f43c 6a7b eb3d d904 5ebe 1260 03be
00000090: 212e ed3c 2704 2a3e 0419 293d f55b c03d
000000a0: e8bd 493d 8154 0a3e bd02 493d c42e 753d
000000b0: 4bbe 1e3e 1805 29be 9212 01be b119 4c3d
000000c0: cc88 de3b 173f 043e 2807 f2bd b6ce 5abd
000000d0: bc20 993d be4d 19be 9263 ed3d f09f 6d3d
000000e0: ba0d fc3c 00ff 4b3d 839c ae3c 4330 d33d
000000f0: 1bab cabb 151d bb3d 5331 3ebc e075 222f
00000100: 5535 be3d af56 ecbd 8431 733d 3e71 fabc
00000110: 9749 ebbd 8978 033d 7ab1 a33b 65f8 40bc
00000120: d092 8abb 8ccf f33d 7421 073e bc20 95bc
00000130: 1b4c 81bd 4760 d1bd 14af 59be 8c03 79bd
00000140: 4651 9bbb a5c9 09be feb7 12be e6e8 90bd
00000150: 7459 afbd 0008 d23d 36f1 cfbd 4b1c 47be
00000160: d703 6dbc 0868 2a3e 82de b7bd 2c49 d8bd
00000170: e358 69bc 0f17 dbbd c107 d7bd 7bd1 2fbe
00000180: c3fd 91bd ea1e 9ebb 509f f23b dcd3 883d
00000190: 27db fcbd d751 003d 0be2 ffbd ad3b 9dbc
000001a0: 0c04 5dbe 0bba 8d3d 34bc 3cbe c679 25bc
000001b0: 28eb 063e 05b7 03be bead a83d 9ab0 a5b6
000001c0: ed97 b03d b29d 973c 2b4c 6fbc 25d5 ec3c
000001d0: 8830 a83d 6ddc 09be bad6 22be 4b60 03be
000001e0: 5d6a 993d 4085 41be 69c1 14bc c69f 34be
000001f0: cc9c 3ebe 7f4e cebd 2edc 833d f03d f5bd
0.0796116 0.009907116 -0.018986288 0.11296813 -0.093983054 -0.012180367 -0.057049144 0.068335004
0.014861242 -8.8331704e-15 -0.01704145 -0.017129581 0.0327814 -0.015358071 -0.057194103 0.02014662
0.13936993 0.104780406 0.17747612 0.074086696 0.048972737 -0.1926607 0.09861141 -2.7970761e-06
-0.05864826 -0.15230072 -0.00934649 0.017673157 -1.5910278e-15 -2.7968654e-17 -0.16988279 0.027000537
0.029827908 0.11498149 -0.21681537 -0.12829617 0.02895266 0.16603146 0.041283622 0.093925394
0.049253374 0.13508798 0.049074877 0.059859052 0.15502279 -0.1650585 -0.1260474 0.04982919
0.00679121 0.12914692 -0.11817771 -0.05341979 0.07476947 -0.14971063 0.11591257 0.058013856
0.030768264 0.049803734 0.021314865 0.103119396 -0.006184948 0.09136406 -0.0116084395 1.4775692e-10
0.09287516 -0.11539971 0.059373394 -0.030571576 -0.114886455 0.032097373 0.004995522 -0.011777972
-0.004228927 0.11904821 0.13196355 -0.018204086 -0.06313344 -0.102234416 -0.21258193 -0.0607944
-0.004739913 -0.13455828 -0.14328 -0.07075672 -0.08561984 0.10255432 -0.10153429 -0.19444387
-0.0144662475 0.16641247 -0.08977987 -0.105608314 -0.014242384 -0.106977575 -0.10499526 -0.17169754
-0.07128479 -0.0048254626 0.0074042454 0.06681034 -0.123464875 0.03132805 -0.12494286 -0.019193495
-0.21583575 0.069202505 -0.18431169 -0.010099834 0.13175642 -0.12862785 0.08236264 -4.9379423e-06
0.086227275 0.018507812 -0.014605562 0.028910229 0.082123816 -0.13462992 -0.15902224 -0.12829702
0.0749099 -0.18898487 -0.009079316 -0.17639074 -0.18614501 -0.10073566 0.0643848 -0.11974704

network.3.weight f4 [128]
00000000: da3d 783f fe2f 803f 38f7 7a3f 5d67 6e3f
00000010: 894f 813f a6f5 733f c790 743f 4642 7d3f
00000020: cf3a 753f 057e fa3e 6468 823f b278 fa3e
00000030: d1c2 823f 9512 283f 2062 773f 7113 853f
00000040: b33a 713f 3736 6f3f 11b4 7c3f f947 763f
00000050: 26da 563f b1b5 773f dd8d 733f 057e fa3e
00000060: 963b 7b3f eeac 8f3f 7d60 023f 593c 753f
00000070: 057e fa3e 057e fa3e 0f79 743f 504a 7d3f
00000080: 5a2a 723f 1261 6f3f df14 713f 2d1b 783f
00000090: 6e32 453f 53fb 813f 4013 853f 821a 6b3f
000000a0: 4f5e 733f a13f 7f3f d1c3 873f 1fee 723f
000000b0: 2846 7b3f 3f3d 7c3f b02a 843f 98f4 793f
000000c0: f72e 813f d789 863f 520e 873f b83e 503f
000000d0: f68e 893f 2d62 753f 317f 813f 8895 753f
000000e0: a913 893f 789f 273f f567 783f dbe0 673f
000000f0: 0feb 4d3f 121b 7e3f fbe7 543f 057e fa3e
00000100: 2fa2 813f 3179 813f 33fb 6f3f 736a 723f
00000110: 661f 783f 9431 713f d618 7f3f f105 593f
00000120: f21b 8a3f 7000 813f c312 733f 037e fa3e
00000130: 09a2 803f 09bb 773f 0da9 893f 5692 813f
00000140: 5613 733f a20e 753f 178f 503f 216e 793f
00000150: 5fa2 213f 30da 733f d09f 793f 4298 7f3f
00000160: 4499 7a3f 5dcb 803f e73c 773f 4795 703f
00000170: 0e7e fa3e c286 913f 5ce0 763f b951 783f
00000180: 7658 6a3f cbdc 053f 7b9b 763f de41 943f
00000190: 80ee 7c3f 4596 773f aece 7b3f 037e fa3e
000001a0: e88b 7e3f cf7b 763f 1683 763f 3a54 ff3e
000001b0: f96e 763f 3bee 803f 2958 773f 057e fa3e
000001c0: 0ba5 773f 1ecf 8b3f f87d fa3e 285b 6c3f
000001d0: b886 803f e03f 763f 4994 7a3f 66c6 7f3f
000001e0: 91ad 803f 407e 783f 0c69 5b3f c185 813f
000001f0: eb9c 813f 2fdc 783f e2a7 833f 8b56 773f
0.9696938 1.0014646 0.98033476 0.9312647 1.0102397 0.95296705 0.9553341 0.9892925
0.9579286 0.4892427 1.0188107 0.48920208 1.0215703 0.65653354 0.966341 1.0396558
0.9423019 0.934421 0.9871226 0.9620357 0.8392662 0.96761614 0.9513834 0.4892427
0.98137796 1.1224649 0.5092848 0.9579521 0.4892427 0.4892427 0.9549722 0.98941517
0.94595873 0.9350749 0.9417247 0.96916467 0.77030075 1.0154823 1.03965 0.9183732
0.9506578 0.99706465 1.0606633 0.94894594 0.98153925 0.98530954 1.0325527 0.97638845
1.0092458 1.0510815 1.0551245 0.813457 1.0746753 0.9585293 1.0116941 0.9593129
1.0709125 0.65477705 0.97033626 0.9057748 0.80436796 0.99260056 0.83166474 0.4892427
1.012762 1.011511 0.93742675 0.9469368 0.9692291 0.94216275 0.9964727 0.8477469
1.0789778 1.0078259 0.94950503 0.48924264 1.0049449 0.9676977 1.0754715 1.0122783
0.9495138 0.9572545 0.8146834 0.9743367 0.63138384 0.952548 0.9750948 0.998417
0.97890115 1.0062062 0.96577305 0.9397778 0.48924297 1.136925 0.96436095 0.969997
0.9154123 0.5229003 0.96330994 1.1582601 0.9880142 0.9671367 0.98362243 0.48924264
0.9943223 0.96282667 0.9629377 0.49868947 0.9626308 1.0072702 0.96618897 0.4892427
0.9673621 1.0922582 0.48924232 0.92326593 1.0041113 0.96191216 0.97882515 0.99912107
1.0052968 0.9706764 0.85707164 1.0118943 1.0126013 0.97210974 1.0285609 0.9661643

network.3.bias f4 [128]
00000000: 2e01 e33c 9e39 013a 874a cfbc 0be9 96bc
00000010: aa2b 9c3c c69c aa3c 844c 1bbc 29d4 24bc
00000020: a440 2f3c 47b2 cb3c b1fb f5bc 0a54 273c
00000030: 1849 14bd b0a1 4abd e134 603c 8ef5 bdbb
00000040: 1e2d 8fbc 626f 61bc a9f8 983b 6d7d c13c
00000050: 5ad3 893c 314f 20bc 5549 83bc 2a5b 2fbc
00000060: 3354 09bd 1c01 243b 99f0 fc3c 8457 9739
00000070: c9bc 0ebd f0ba 97bc 5eb9 fabb 7fbf c9bc
00000080: 8770 dd3c 84fc 4cbc 56b6 5ebc 0805 363d
00000090: 5565 d33c 72a9 0a3c 2e98 3d3b 6ef8 c73a
000000a0: be47 953b d7d7 213c 27a2 3abc 174c 093d
000000b0: b6c3 e13c fc00 41bc 382c 31bd 501c b73c
000000c0: 162c 93bc cbbf 173d ffe6 653d 9a6b 7abc
000000d0: cb3a 3dbc dfa6 34bb bbd5 583c b626 40bb
000000e0: 9bef b1bc 3752 56bd b02b 493d 88d0 02bd
000000f0: 3a18 babc 26d7 a03c faeb 943c fe60 af3b
00000100: d560 433c 5933 1d3c e1b4 0fbd 75f9 50bc
00000110: 939d 65bd 7ade fa3c 81db 15bd 77b4 873b
00000120: 250a d1bc 4def dd3b 54e1 9c3a 8e35 6e3c
00000130: a6e4 c8bb 38a9 7b3b d27f 6c3b b72f 033c
00000140: 48b0 5f3c 80d0 a73b a8c3 d9bc 57b6 0d3c
00000150: b7b7 1dbc e310 503d 6483 2b3c b5fc 3f3c
00000160: ad97 27bb 7ee0 903c 6e35 01bd a632 d3bc
00000170: 5a1c 0c3c 8888 d63c 2c15 e93c 7088 88ba
00000180: 1a1c eebc af73 cd3c d2c5 bdbc d46f bcbc
00000190: aef1 0e3d 5876 d2bb d2cb ab3c c894 553b
000001a0: 182c 6fbc 6625 05bd 52b3 e13b 257c b33b
000001b0: 160a 093c 76a1 a63b 975d 833c a60a cf3c
000001c0: 7561 733c d8de ccbb 3948 59bc e2fa ee3c
000001d0: 307b 94bc b9ed 093c 06eb 603b 79bf 18bb
000001e0: 123b 34bc 7bac c8b8 a5cf adbb 67e7 04bd
000001f0: 2dfe 8d3c fce2 df3c 0354 be3c d7af aa3c
0.027710523 0.0004929545 -0.025304092 -0.01842167 0.01906379 0.020826709 -0.009478692 -0.010060349
0.010696564 0.024865283 -0.030027242 0.010212908 -0.03620252 -0.049470603 0.013684482 -0.0057970947
-0.017477568 -0.013759466 0.0046683145 0.023619378 0.016824413 -0.009784506 -0.016026178 -0.010702888
-0.033527564 0.0025025075 0.030876445 0.0002886617 -0.03484801 -0.018521756 -0.007651492 -0.024627445
0.027031196 -0.012511376 -0.013593277 0.044438392 0.025805155 0.0084632505 0.0028929817 0.0015256533
0.0045556715 0.00987812 -0.011391199 0.03351983 0.027559143 -0.01178002 -0.04325506 0.022352368
-0.017965358 0.037048142 0.0561285 -0.015284443 -0.011549662 -0.0027565283 0.013234551 -0.0029319949
-0.021720698 -0.0523245 0.04911393 -0.031937152 -0.02271663 0.01963384 0.018178929 0.0053521385
0.011924942 0.009594762 -0.03508461 -0.012754788 -0.056058478 0.030623663 -0.03658629 0.004141386
-0.025517533 0.0067729116 0.0011969008 0.014539136 -0.0061307726 0.0038400423 0.003608693 0.008006982
0.013652869 0.0051212907 -0.026582554 0.00864943 -0.009626321 0.050797354 0.010468338 0.011717965
-0.0025572584 0.017685171 -0.031545095 -0.025780987 0.008551681 0.02618815 0.028452478 -0.0010416638
-0.029066134 0.025079576 -0.023165617 -0.023002543 0.034898452 -0.006422799 0.020971213 0.0032589901
-0.014597915 -0.03250637 0.0068878317 0.0054774457 0.008364221 0.0050851656 0.016035838 0.025273632
0.014854779 -0.006252151 -0.013261848 0.029172365 -0.018125147 0.008418494 0.0034319772 -0.0023307486
-0.011000412 -9.56887e-05 -0.005304294 -0.032447245 0.017333115 0.027329914 0.02323342 0.0208358

network.3.running_mean f4 [128]
00000000: 8870 1140 c936 493c f756 193e 2589 9e3f
00000010: 123f 0b39 a162 dc3f 5820 193f 89db 863d
00000020: 4b3b 5e40 0000 0000 6fa5 5b22 053c 1121
00000030: af95 673d 5347 161e e343 9639 67d2 0a3e
00000040: cc59 2940 bc10 b93f 1e21 bc3c 3b8a e43e
00000050: 1406 bd19 37ee ab3f c664 3440 0000 0000
00000060: 8eeb 0f3e 1d0c e43d 17de af0f 1afb c910
00000070: 0000 0000 0000 0000 702d 1b40 1650 6c3b
00000080: e324 0240 0597 5d40 e244 1440 c3de 623c
00000090: 1844 ae1b 34ad 123d 309c f73a 3518 fd18
000000a0: 4488 b03f 7449 8338 4e07 893d 66ca 453f
000000b0: 7dda d33c 0749 b03c d92d bf3d 6cc3 3a40
000000c0: 015a 443d a5cd 553d 4cb8 773e 1efd bf3e
000000d0: fd8f c33d 6eb0 f33f e637 2e3e 13b8 1140
000000e0: 7ed2 523a c767 f717 5a54 e83f efa1 b716
000000f0: 6204 1939 37f3 9d3f 84f7 9713 0000 0000
00000100: 4411 3a3c 2f7a 433b 2459 bf3f 7a98 973d
00000110: d46b 2a0f ec98 0f3d ea11 0a3d 7138 8318
00000120: 1133 003e fc10 783e 4238 6b40 f793 0c1e
00000130: e6a3 8a1c 3223 973c 5e48 083e 6e26 3d3e
00000140: ff64 c13c 1309 bd35 dba7 020c 6263 a63f
00000150: 0fd7 6b0b 6ea0 c03f 68d5 903f 8ae7 033e
00000160: efa8 823d 8e30 593e db3c ed3f 0866 1440
00000170: 84ff 8515 4ea2 253b af80 483f f5eb 973c
00000180: dc9d 3940 314a 9c3e c777 fc3f 1b22 3735
00000190: 49ad ff3d 5eb1 993b acf3 3040 a340 0d26
000001a0: 4a29 a13e 15bf 1140 983b 1037 e5db ff10
000001b0: 8f7c f43c 02fb 473e 5629 db3c 0000 0000
000001c0: 3335 c93c f064 4e3d aba9 b218 053b 4040
000001d0: 7c43 d03c ddcd 7139 2e41 6e3f 603f ee3e
000001e0: b1dd 3b3e e935 783e 92ba 170f 4ec4 c03a
000001f0: b02c 2b2f ca19 283c 48b5 023e 1699 a73c
2.2724934 0.012281128 0.1497458 1.2385603 0.00013279569 1.7217599 0.5981498 0.06584842
3.472369 0.0 2.9767614e-18 4.9207346e-19 0.056539234 7.955683e-21 0.0002866081 0.13556825
2.6461058 1.4458232 0.02296501 0.4463671 1.9544597e-23 1.3432072 2.8186507 0.0
0.140547 0.11135123 1.7341878e-29 7.9667404e-29 0.0 0.0 2.4246483 0.0036058477
2.0335014 3.4623425 2.3167043 0.013847056 2.882989e-22 0.03580971 0.0018891152 6.542341e-24
1.3791585 6.2602485e-05 0.066908464 0.7726196 0.02586102 0.021519197 0.093349166 2.9181776
0.047937397 0.05219807 0.24191397 0.374978 0.09548948 1.9038217 0.17013511 2.27686
0.000804223 1.5988198e-24 1.8150742 2.966744e-25 0.0001459285 1.2339848 3.836183e-27 0.0
0.0113566555 0.0029827466 1.4949079 0.074021295 8.402414e-30 0.035057947 0.03370849 3.3919698e-24
0.1251948 0.24225229 3.6753087 7.442137e-21 9.174441e-22 0.0184494 0.13308856 0.18471691
0.023607729 1.4084238e-06 1.0065348e-31 1.2999079 4.5421146e-32 1.5048959 1.1315126 0.12881294
0.06379878 0.21209928 1.8534197 2.3187275 5.4121405e-26 0.0025273743 0.78321356 0.01854513
2.90026 0.30525354 1.9724053 6.822244e-07 0.124842234 0.0046903333 2.7648726 4.90068e-16
0.31476814 2.2772877 8.596944e-06 1.00918567e-28 0.02984455 0.19529346 0.026753109 0.0
0.0245615 0.05038923 4.6183242e-24 3.0036023 0.025422804 0.00023060241 0.93068206 0.46532726
0.18346287 0.24239315 7.480807e-30 0.0014706941 1.5568236e-10 0.010260055 0.12764466 0.02045874

network.3.running_var f4 [128]
00000000: cd9c 7240 8ffd 053b 4485 ea3d 0ee6 793f
00000010: a0c5 aa36 a32e 2d40 a078 773e f423 183d
00000020: fecc 1141 2392 de11 d62a 9821 88fb 581a
00000030: 4b50 313d 4d9c 9119 8734 3c37 8eb2 d93d
00000040: b451 eb40 2c51 a03f 4421 df3b 8f49 113e
00000050: 8f81 9b15 d33f 1b40 581c ca40 2392 de11
00000060: ff79 2f3e 7950 db3c bea8 de11 3f71 e511
00000070: 2392 de11 2392 de11 eb95 be40 4208 713a
00000080: 37c7 4140 4be3 1c41 220b 9740 b687 883b
00000090: b21b 4617 65a7 363c 5cae 4b39 9444 c415
000000a0: 0574 f23f 7910 3336 8d44 0d3c adca 2c3f
000000b0: 187c 173c ab3c 0d3c 2da3 8b3d d0dd f740
000000c0: 630a d23c 610a 8b3c 7251 ab3d df1d c73d
000000d0: 0851 823d 69a0 7640 4caa b13d 5464 5840
000000e0: 2673 9338 f725 a513 6c05 4640 ff5c 5d14
000000f0: 840c 6c37 ad18 dd3f 8a1c 0212 2392 de11
00000100: ce51 d33a 8439 d939 685f 1f40 4b29 543c
00000110: a6a3 de11 d7bf 743c 2eca 073c f15f 2416
00000120: 152e df3d 6097 5f3d 2e05 3e41 4e1e 0612
00000130: 6662 2c1a 6d41 d23b cf25 fc3c d250 5d3d
00000140: a0d0 f53b e4f3 1e35 2392 de11 8bd6 0b40
00000150: 2392 de11 5e30 1740 1743 e13f 1193 1a3d
00000160: 6dac 0c3d f4c7 713e e5c5 1f40 dc4a 8240
00000170: 51ac de11 11d4 4c39 a3e6 563f bb7b dd3b
00000180: 751e d040 ee43 c33d 8183 8340 f2fa 8332
00000190: 7345 283d 9729 3f3a fb7c d540 4985 2c1b
000001a0: 80ff 023e 9c35 8740 18a2 5c34 9bbe de11
000001b0: 9ec8 513c 26b8 313d 4ab3 233c 2392 de11
000001c0: 0b0c 303c 62f3 b93b 908a 8a12 6476 b640
000001d0: b7ee fa3b 17d1 0637 816e 183f aa65 6d3e
000001e0: b6e6 413e 3a07 a93d f495 de11 279e 7339
000001f0: c9b1 982d 9f5f 843b 46b2 483d 601d ae3b
3.7908204 0.0020445322 0.114512 0.9761666 5.0894014e-06 2.7059715 0.24167109 0.037143663
9.112547 3.5115488e-28 1.0311259e-18 4.4870938e-23 0.043289464 1.5055778e-23 1.1217903e-05 0.1062976
7.3537235 1.2524772 0.0068093855 0.14188217 6.280841e-26 2.4257705 6.31596 3.5115488e-28
0.17136382 0.02677177 3.512942e-28 3.6199623e-28 3.5115488e-28 3.5115488e-28 5.9558005 0.0009194651
3.027784 9.805491 4.720109 0.0041665686 6.4012207e-25 0.011148308 0.00019424543 7.9271967e-26
1.8941656 2.6682667e-06 0.008622301 0.6749676 0.009245895 0.008620421 0.06818233 7.7458267
0.025639718 0.016972722 0.08365144 0.09722494 0.06363112 3.8535407 0.0867506 3.3811235
7.030954e-05 4.1689292e-27 3.094081 1.1175989e-26 1.406961e-05 1.7273155 4.1055944e-28 3.5115488e-28
0.0016122402 0.00041432318 2.4901981 0.012949298 3.512628e-28 0.014938316 0.0082879495 1.3278088e-25
0.10897461 0.05458772 11.876265 4.23203e-28 3.5648252e-23 0.0064164908 0.030779747 0.054032154
0.0075016767 5.9214494e-07 3.5115488e-28 2.1849697 3.5115488e-28 2.362327 1.7598599 0.03773791
0.034344126 0.23611432 2.4964535 4.071638 3.5131622e-28 0.00019533957 0.83945674 0.0067591346
6.503718 0.09534441 4.1098027 1.5364524e-08 0.041081857 0.0007292269 6.6715064 1.4270573e-22
0.12792778 4.225294 2.0548066e-07 3.5142894e-28 0.0128041785 0.04338851 0.009991476 3.5115488e-28
0.010745059 0.0056747654 8.743183e-28 5.701952 0.0076578516 8.035705e-06 0.59543616 0.23183313
0.18935665 0.082533315 3.511784e-28 0.00023233202 1.7359352e-11 0.0040397192 0.04899814 0.0053135604

network.4.weight f4 [64, 128]
00000000: 75e9 353d 2090 f2bd 7c84 a5bc cb18 353d
00000010: c3c4 513d cf4b 563d 91dd a2bd e8d1 883d
00000020: 088c 2dbc ac4c 5e3d 8c22 87bd 70ab 1bbd
00000030: 0b91 9e3d 1598 45bd f7a4 32bd 9e9a 163d
00000040: 3b79 8c3d e793 94bd d6bc 0fbd 6dd0 46bd
00000050: a5d8 bdbc 67ae a1bd 4fa1 863d 4b80 753c
00000060: 44b0 8b3d 9cde a4bd 1a4d 6ebd c566 503c
00000070: 59d8 c7bd 2605 cfbc de3d 643d 62f0 04bd
00000080: 6c9e 8f3d e387 9f3c ec49 653d 354d 9cbc
00000090: d27b c63c 08cd 61bd 1d43 343d c2b6 07bd
000000a0: 5049 53bc ac3f 873d 3c5a 033e 5cf9 fbba
000000b0: e94a 46bd a8b9 81bd 6203 d13d dc71 3bbc
000000c0: 86dc 9e3d 77c0 94bd 37d1 afbd 2104 e83d
000000d0: 87b0 893c 486b 90bb 42d8 933c fcda 393c
000000e0: 4c48 7c3d 3146 853d 8b38 99bd 4fa2 12bc
000000f0: 6937 8f3a d86f c8bd dcd8 33bb 9995 91bc
00000100: 7d3e 593c c3d4 04bd d4b1 5abd 41cc 92bd
00000110: 4814 c63b e284 98bd b0a3 8b3d 797a 813c
00000120: a8df e43d f38c 993d 08d3 20bd 0dd5 9cbd
00000130: 578c 90bd 07fc a83d dc4e 9f3c 25da 9c3d
00000140: 8c49 50bc 63dc 83bd 0eff 9e3c 17b9 9cbd
00000150: aae1 543d 738f 1f3d 17c0 56bd 0e1e e33b
00000160: 165f b73c 4c5f cd3c 200a 74bc 0175 24bd
00000170: f413 213d 7fd3 d43c 8d4a 82bc 11f5 953c
00000180: c0c5 40bd 8f4e cb3d 73a9 acbb ec79 323d
00000190: 7202 46bd b2e4 26bd 861e adbc 360b 54bd
000001a0: 21ac a13d fd98 44bd 4f7d d33c fea3 99ba
000001b0: 4555 30bb c47d 8bbd 2d49 863b d919 8c3d
000001c0: 4989 c73d ae4f 5f3d 7fd0 ecbc 3e85 6dbd
000001d0: 87d7 8abd 7099 9dbd 523a ad3a 93af bfbd
000001e0: 2d4b d03c 43c0 a63d e04c b23d cdc0 f83c
000001f0: 9f8a 673d a56b bdbc 0caf 9b3c 3a02 b8bb
00000200: ec02 57bd 6362 02bd b647 c7bc 8358 44ba
00000210: 4f40 a3bc db3f b33d 33de fdbc a7cf 37bd
00000220: 5e7a a9bd 84a2 81bd bd71 dcbc 514e 7c3d
00000230: 5ad4 6b3d 186a 96bd b45c d33c ee6f 6abc
00000240: 3178 783d 7e35 5a3d 552a 59bd 84bf 95bd
00000250: ea6a 0abd 666b 88bd dcf1 2abb f3fe a43c
00000260: 63d2 bebc 0509 ecbd 2f22 a1bd 217b 853d
00000270: 2aca b0bc 59ea 333d cd94 db3c d18d 6b3d
00000280: b7d3 903c 04dc a23c 3c27 883a 7275 f33c
00000290: c777 803c 1c80 a0bd 26ee 06bd 274a a5bc
000002a0: 5ef0 593b 3123 42bd b6ae 5e3d a71f 78bb
000002b0: c4e0 aabc 79d9 553d 1650 62bc 37dd 353d
000002c0: af25 bdbc ff85 cebd 2116 28bd c391 bbbc
000002d0: c2f3 b63d 1fab efbc 07d8 563d 87d7 c33c
000002e0: 10b3 27bc 6141 c6bc 3e4e 413d fb50 2fbd
000002f0: 6010 47bd b165 77bd 5abc 823d e5a7 53bd
00000300: e722 623d 27a4 2f3d 24ac cfbb 5428 5a3d
00000310: b466 993c 28c3 31bd f3b9 d93c 4886 213d
00000320: d35a c5bc 8d61 be3c 01c4 e83c 7ba9 9abd
00000330: b389 4dbd c670 f63c 3742 d2bd a5c7 3d3c
00000340: 4bd2 c6bc 5584 9ebd e51b 1b3d f785 91bd
00000350: 4f59 6b3c 6338 653c 7b16 1bbd 8c8e 1dbd
00000360: 8f17 993d 5c5a b73b 6989 37bd a3f6 d6bc
00000370: 17c1 f939 06a9 70bd 1d26 a8bc e545 443d
00000380: 7d34 9e3d a270 0f3d 6d57 193d 0530 0e3e
00000390: 1f50 7ebc bf47 5b3d 7cc8 f23c 00ce 2ebd
000003a0: 21a7 a13b c721 4dbd dcf8 b1bd b185 dcbc
000003b0: e4d3 81bd 64d7 2abd 3381 52bd f3a6 8d3d
000003c0: ea43 c93c 529a 033e 5177 82bd 7be2 c0bc
000003d0: 951e 56bd 85cf 27bc 0d5c 0b3d 19f8 033b
000003e0: 7732 c43d 448f aebd f9f4 853d 2fbd e6bb
000003f0: 2410 a9bd 9462 d03c e41b 94bd eefd 55bd
0.044412095 -0.11843896 -0.020204775 0.044213098 0.051213037 0.05231839 -0.07952417 0.066806614
-0.010592468 0.05427234 -0.06598386 -0.038005292 0.077425085 -0.04824074 -0.043614354 0.03676855
0.068590604 -0.07254773 -0.035092197 -0.048538614 -0.023174593 -0.07894593 0.06573736 0.014984201
0.068207294 -0.08050272 -0.058179 0.012719815 -0.09758062 -0.02527101 0.055723064 -0.03245581
0.070126384 0.019473976 0.0559787 -0.019079784 0.024228964 -0.055127174 0.044009317 -0.033133276
-0.012895897 0.06603941 0.1282739 -0.0019224095 -0.048411284 -0.06334239 0.10205723 -0.01144072
0.07756905 -0.07263272 -0.085848264 0.113289125 0.016807808 -0.00440732 0.018047456 0.011343714
0.061592385 0.065075286 -0.07481488 -0.00894983 0.0010926548 -0.097869575 -0.002744249 -0.017771529
0.013259527 -0.032429468 -0.053392246 -0.071678646 0.006044898 -0.074472204 0.0681833 0.01580547
0.111754715 0.07497587 -0.039263755 -0.07657824 -0.07058018 0.082511954 0.019446783 0.07658795
-0.012712847 -0.0643852 0.019408729 -0.076524906 0.051973023 0.038955163 -0.052429285 0.006931073
0.022384208 0.025069855 -0.014894992 -0.040150646 0.03932567 0.025979755 -0.01590469 0.018305333
-0.04706359 0.09927093 -0.0052692234 0.043573305 -0.048342176 -0.040745445 -0.021132719 -0.051768504
0.07894159 -0.047997463 0.025816588 -0.0011721847 -0.0026906293 -0.06811097 0.0040980787 0.068408675
0.09742982 0.054519348 -0.028908012 -0.057988398 -0.0677939 -0.076952815 0.0013216233 -0.0935966
0.025426472 0.0814214 0.08706069 0.030365372 0.056528684 -0.023122618 0.019004367 -0.0056155
-0.05249302 -0.03183211 -0.024326187 -0.0007489996 -0.019928126 0.08752414 -0.030989742 -0.044875767
-0.08275293 -0.063298255 -0.026909703 0.061598126 0.05757556 -0.073444545 0.02580104 -0.014308913
0.0606615 0.05327367 -0.053018887 -0.07311919 -0.033793367 -0.066611096 -0.00260841 0.0201411
-0.02329368 -0.11525158 -0.07867848 0.065176256 -0.021580774 0.043924663 0.026804352 0.057508294
0.017679079 0.019880302 0.0010387669 0.029719088 0.015682114 -0.07836935 -0.03294196 -0.02017696
0.0033254842 -0.047396842 0.054365836 -0.0037860663 -0.02085913 0.05220935 -0.013813039 0.04440042
-0.023089258 -0.100841515 -0.04103673 -0.022896653 0.08933212 -0.029256402 0.052452113 0.023906482
-0.010235563 -0.024201097 0.04719376 -0.04280184 -0.0485996 -0.060399715 0.063835815 -0.05167379
0.055209067 0.042881157 -0.0063376594 0.053261116 0.01872573 -0.043399006 0.026577925 0.0394347
-0.02409116 0.023239875 0.028413774 -0.07551857 -0.05018015 0.030083071 -0.10266536 0.0115832435
-0.024270197 -0.07740084 0.0378684 -0.0710563 0.014364555 0.013990494 -0.037863236 -0.03846602
0.074751966 0.0055954885 -0.04480878 -0.026240652 0.00047636844 -0.058754943 -0.020525986 0.04791822
0.07724855 0.035019524 0.03743689 0.13885505 -0.015522032 0.05353522 0.029636614 -0.042676926
0.0049332534 -0.05008104 -0.08690044 -0.026919218 -0.06339243 -0.04170932 -0.051392745 0.06916609
0.024568517 0.12851837 -0.06370414 -0.023545494 -0.05227526 -0.010242348 0.034023333 0.0020136891
0.09579938 -0.085234195 0.065408655 -0.0070415954 -0.08255032 0.02543763 -0.07231882 -0.05224412

network.4.bias f4 [64]
00000000: e9ad 81bd 2c3b 0d3d 7fde 53bd 154d 6b3d
00000010: 6895 913d 1f27 55bd f1ed 9abd 5ba0 9cbd
00000020: f2dd b1bc b93f 7ebd 0cfb 65bd d4e8 a9bd
00000030: 7ea2 58bd 3be3 d13d 63af 863c 6a22 dfbd
00000040: dc6d cfbb d163 d4bc 1320 843c bda0 0f3d
00000050: 3695 1fbb c168 383d 3573 2a3b f892 d1bd
00000060: a638 46bc 81ae 4abd 7de8 b33d 478b 023d
00000070: 4b0f 27bd ec00 973d 654b bc3d eac8 3a3d
00000080: b0ab 3b3d ae34 703d d2b0 44bd 2813 8abd
00000090: 3762 f1bb ec6b 433d f73e 503b d583 7f3d
000000a0: 4006 07bd d33f ba3d 98a3 f1bc e919 8b3d
000000b0: 742e 04bd 45be 583b 6b2b c4bd b85d 9fbc
000000c0: c447 afbb 8853 4a3c f7af 25bd e478 7abd
000000d0: 4afb 38bd 683e 5dbd d811 273d 3634 f33c
000000e0: f0cf 80bc 9be6 b03d 8b08 4cb9 7149 d43d
000000f0: f18e ca3d 0597 abbd f5a7 a9bc 3d3a 983c
-0.06331999 0.03448026 -0.05172586 0.057446558 0.07108575 -0.052039262 -0.07564915 -0.07647773
-0.021712277 -0.06207249 -0.05614762 -0.082963616 -0.05288934 0.10248419 0.016441053 -0.10895236
-0.006330235 -0.025926502 0.016128575 0.0350654 -0.0024350411 0.045021776 0.002600861 -0.1023311
-0.012098467 -0.049482826 0.08784578 0.031871106 -0.04078607 0.07373223 0.09194068 0.045601763
0.04581803 0.05864399 -0.04802019 -0.06741935 -0.0073664444 0.047710344 0.0031775811 0.062381584
-0.032964945 0.09094205 -0.029496953 0.06792051 -0.032270864 0.0033072394 -0.09578594 -0.019453868
-0.0053491313 0.012349017 -0.040451016 -0.061150447 -0.045161523 -0.054014593 0.0407885 0.029687982
-0.015724152 0.086377345 -0.00019458139 0.1036557 0.09890545 -0.08378414 -0.020709971 0.018582458

network.7.weight f4 [64]
00000000: a866 733f c356 833f e9b1 7b3f 00a6 893f
00000010: 0587 843f a312 853f 9af0 753f f9f2 783f
00000020: bcda 6c3f 4679 733f fa88 843f 6f3e 7f3f
00000030: fe7a 6e3f 183f 873f 7d89 843f f9e0 823f
00000040: 35a7 833f 0886 723f e59a 783f b4dd 823f
00000050: 1fb4 783f be96 813f d4d1 7c3f 9f50 7a3f
00000060: a967 823f 07d2 703f 7c4b 813f 7c97 6d3f
00000070: 4964 773f fb1e 773f 3a76 803f 1b9a 853f
00000080: 190e 813f d792 763f 5fc3 743f 6f89 803f
00000090: 0273 733f 7a12 803f c984 823f 5bf2 753f
000000a0: a887 833f 7eb8 7f3f df6f 713f 54f1 843f
000000b0: 0ea7 7c3f 1e00 7e3f f558 7e3f fbeb 8b3f
000000c0: 86d0 793f 958e 6f3f 6c8a 863f 8d4c 733f
000000d0: 80d2 6c3f 3870 6e3f 9bc2 7e3f 688e 833f
000000e0: 59a6 6a3f 23e4 813f c64e 773f acaf 803f
000000f0: 75ac 813f 8097 8a3f b86c 723f 1498 813f
0.95078516 1.0260853 0.98318344 1.0753784 1.0353705 1.0396312 0.96070254 0.97245747
0.9252126 0.95106924 1.0354302 0.9970464 0.9315642 1.056613 1.0354458 1.0224906
1.0285403 0.94735765 0.9711135 1.0223908 0.9714984 1.0124128 0.9875767 0.9777927
1.0187885 0.94070476 1.0101161 0.9280927 0.966374 0.9653165 1.003608 1.0437654
1.0082427 0.9631781 0.9561061 1.0041941 0.95097363 1.0005639 1.0196773 0.9607293
1.0275774 0.9989089 0.94311327 1.0386147 0.98692405 0.9921893 0.9935449 1.093139
0.97583807 0.9357694 1.0510993 0.9503868 0.925087 0.9313998 0.99515694 1.0277834
0.91660076 1.0147747 0.96604574 1.0053611 1.0130755 1.0827484 0.9469714 1.0124536

network.7.bias f4 [64]
00000000: 2b68 c2bd 1399 a3bd 39cd c23c 7614 dabd
00000010: 2db5 cbbd 7b5b 993c 91a9 8d3c 477a acbd
00000020: e8ee ba3c a46e e43c 7513 ca3c 5c87 dd3d
00000030: 77f6 713d 9843 dd3d e77b 56bd dd1d b93d
00000040: 1cee 95bd c44b 60bd e93e cc3d 36c3 f53d
00000050: 0139 85bd 8e18 e1bd 47e9 893d 0a61 bcbd
00000060: d32d bc3d 1fa6 dfbc 69f8 adbd 27fa 41bd
00000070: b015 6fbd eadc fabd 850d 26bd 5c61 a63d
00000080: a8f4 31bd ddf7 8a3d 871d 883d 9d14 c03c
00000090: 071e e63c 1a3e 50bc c321 c33c 26ec 023e
000000a0: 68db b9bd 6223 f93b 4b22 e7bc 0b56 cdbd
000000b0: 75b5 35bc 8156 183d 99b9 68bc d7e0 e8bd
000000c0: 116b 643d f1ce 133d a61c 0bbe aa14 02bd
000000d0: f2d2 833d 3f0b 8bbc a053 ffbd 4eec 7d3b
000000e0: 7cb7 743d c52c ba3d 0027 9bbd 872c b13d
000000f0: 49a0 a53d 846f 23be 050c e13c a3d2 783d
-0.09492525 -0.07988181 0.023779498 -0.10648434 -0.09946666 0.01872038 0.01729277 -0.0842176
0.022818998 0.027884789 0.024667481 0.108168334 0.059072938 0.10803908 -0.052364256 0.09038899
-0.073208064 -0.054759756 0.09972937 0.12000124 -0.06505013 -0.109910116 0.06733947 -0.09198196
0.09188428 -0.027300892 -0.08494646 -0.047357704 -0.058370292 -0.12249167 -0.040540237 0.081240386
-0.043446213 0.067855574 0.06646257 0.02344733 0.02809049 -0.012710119 0.02381981 0.12785396
-0.090750515 0.007603095 -0.028214594 -0.10026177 -0.011090626 0.03719187 -0.014204406 -0.1137101
0.05576617 0.036086027 -0.13585147 -0.031757988 0.06436719 -0.016973136 -0.12467122 0.0038745585
0.059745297 0.0909057 -0.07575798 0.08651071 0.080872126 -0.15960509 0.027471552 0.060747754

network.7.running_mean f4 [64]
00000000: 981b 683e 776d 923e c328 3e3e 2acb ae3e
00000010: f0bc 933e ec0b 753e e26a 553e 6277 8a3e
00000020: a83e 463e ef71 1c3e ca97 bd3e 669d 3f3e
00000030: f72f 153e 0336 dd3e 77f1 8e3e 2253 8c3e
00000040: 6ed0 af3e 7b76 463e ee41 493e c601 bc3e
00000050: b8d1 893e d513 b03e 33a3 9d3e 878b 4f3e
00000060: 0fea a53e b3c1 6a3e 337b a23e 129f 643e
00000070: a631 1e3e 15de 6f3e c15a bb3e ec70 943e
00000080: b656 b03e e6cf ba3e 974b 8d3e 53e9 6d3e
00000090: 3048 3d3e 7ad4 943e b22d 7f3e 3e08 853e
000000a0: 8a15 a23e 35a5 bb3e d918 b13e b0bb a93e
000000b0: 306c 4e3e cfa3 833e f4ad 943e b15a b93e
000000c0: 4645 8c3e 2bbe 523e dd73 333e e6a7 4d3e
000000d0: 99f0 273e b4a8 093e 9527 9a3e 7fad a53e
000000e0: c293 243e c6a3 9f3e 2acf 4f3e 5db2 bf3e
000000f0: 60b7 bf3e 2415 c53e 1513 5d3e 252a 813e
0.22666776 0.2859914 0.18570237 0.34139377 0.28855085 0.23930329 0.20841554 0.27044207
0.19359839 0.15277837 0.37029868 0.18712386 0.14569078 0.4320527 0.27918598 0.27407175
0.34338707 0.19381134 0.19654056 0.36720103 0.26917815 0.3439013 0.30788574 0.20268069
0.32405135 0.22925453 0.3173462 0.22326306 0.15448627 0.23424561 0.36592677 0.28992403
0.34441155 0.3648674 0.27596733 0.23233537 0.18484569 0.29068357 0.24919775 0.2598285
0.31657058 0.3664948 0.3458927 0.33151007 0.20158458 0.25710914 0.29038966 0.36202005
0.273966 0.20580356 0.17524667 0.2008358 0.16400374 0.13443261 0.30108324 0.3235893
0.1607199 0.31179637 0.2029387 0.37440768 0.37444592 0.38492692 0.2158931 0.25227466

network.7.running_var f4 [64]
00000000: c438 883e 32e8 703e b3d4 f63d 9873 b73e
00000010: c3e6 8a3e a192 783e 09d3 373e e1c6 b43e
00000020: 6537 133e da4f b23d 93c4 a33e bedb 2f3e
00000030: 2b34 e63d 7c70 d63e 1504 683e 5878 983e
00000040: c6e6 b03e af8c 643e 3f3b 1e3e 4e71 913e
00000050: 47e3 463e d1c4 d13e 92c7 a03e c5de a83e
00000060: 1173 d03e 5bee 203e 2120 893e c198 993e
00000070: 03be 0f3e 684b 273e ff11 ae3e ccdd 893e
00000080: 6833 bd3e 4482 2b3f 4361 963e 86d0 463e
00000090: e15c 413e be6a 743e ebd3 7a3e 7f65 523e
000000a0: 3bcd 9a3e c973 cc3e 83fd 2f3f 8eb5 8a3e
000000b0: a4f9 373e 6a4a 653e 224c d53e 4f53 c03e
000000c0: 57ab 923e eb9b 203e 75b7 0c3e 9dc3 5d3e
000000d0: 9c1c 1e3e 4b07 0f3e a871 9c3e 6f87 b03e
000000e0: 27d7 ae3d 8ef2 a13e 7c49 463e 0ce4 913e
000000f0: 38e2 a83e d62b eb3e 3e36 933e a361 6a3e
0.2660581 0.23526075 0.12052288 0.3583038 0.27129182 0.24274684 0.17951597 0.35307983
0.143766 0.08706637 0.31985912 0.17173669 0.11240419 0.41882694 0.22657807 0.29779315
0.34551066 0.22319292 0.15452288 0.28406757 0.19422637 0.40970472 0.3140226 0.3298246
0.4071279 0.15715925 0.26782325 0.29999354 0.14037327 0.16337359 0.33998105 0.2692703
0.36953282 0.66995645 0.2937108 0.19415483 0.18883087 0.23868844 0.24494903 0.2054653
0.30234703 0.39932087 0.68746203 0.2709164 0.17966324 0.22391668 0.41659647 0.3756356
0.28646347 0.15684478 0.13741858 0.21656652 0.15440601 0.13967626 0.30555463 0.34478328
0.08537131 0.31630367 0.1936397 0.28494298 0.3298509 0.45931882 0.2875232 0.22888808

network.8.weight f4 [32, 64]
00000000: c34b 853d b335 6fbd 52b8 1bbd 47ac 1fbd
00000010: c885 8a3c dcc1 01be 9161 f1bd 7356 16bd
00000020: a044 b93c 5b9c 98bc 627f 94bc f063 92bc
00000030: c42a ad3d cfe3 45bd 7451 afbd a3ed 9abc
00000040: 3f8a d63d f8ac 2bbd e1c9 f2bb b321 2ebe
00000050: b562 813d 922e e63c f061 cebd b366 93bc
00000060: a44f 1abd 2f7f b33d 87b9 0f3d 2e93 a1bc
00000070: 527c 8a3d adf1 df3d 04d8 c5bc d0a6 83bb
00000080: be9f 0b3e ea5f b23d 23ba a1bd d1b8 e0bd
00000090: 80ad 9cbd 13f7 abbc b809 a3bd dc2f 603d
000000a0: e979 2cbd 1bb5 cebd 9fdf 79bc e45a 1cbd
000000b0: 7b01 ecbd ee3f f6bd 186c 04bd 5c2d 1c3e
000000c0: 6131 093d 07d2 743c 2e4b ab3d 8e3f a63d
000000d0: 1f65 523b 766e d03d 109d 713d da37 303d
000000e0: ced4 88bd 6dc4 41bd 0add 803d 431c 0fbe
000000f0: e56d b8bc 2f85 bf3c d9b6 873d 07e8 0bbe
00000100: cf63 76bc 08f0 a03c d750 12be 0aba b83d
00000110: 70cc 52bd 730f 95bd 6ec0 1cbd 8a62 bd3d
00000120: 832c f73d 2bcb c3bc e2ec ccbd 5822 013b
00000130: 7921 35bd 3140 28bc 63ab bbbd 4e89 c33c
00000140: f29d 923d 351a 5a3d 26eb 0cbe 68bc 793d
00000150: 6b52 dd3d ca2e d23d 7829 d33c ed66 af3d
00000160: cb0d 0abd eaaa 903d cb54 8abd f842 403d
00000170: 51d1 9a3c 7ef4 613d c361 10be d963 9cbd
00000180: 2078 6f3b bda1 21be 94f5 1cbd cc50 59bd
00000190: e8a7 283b 4812 bfbc fa89 26be 203e 3a3d
000001a0: 2b65 983d 0b4a 92bd a53d 873c d7a5 223e
000001b0: 1614 a1bd ecd1 bb3d e0c3 3c37 cebd a23d
000001c0: 40d4 093c 8203 1f3d 3322 d8bd 9422 a83d
000001d0: df64 8e3d 7054 1e3d d231 6dbd a9f3 14be
000001e0: 1fa4 daba 312e 1d3d 532b eabd e551 88bc
000001f0: 633a 03be 30eb 763d 8771 2cbd 9737 5f3d
00000200: 259c 85bd bc1c d7bd 6646 d13b ad18 bcbc
00000210: b573 07be eec7 033c ea8f 503d 1793 c1bd
00000220: 182e 973d 8b2d 9d3d f8cd b9bd a7e4 3ebd
00000230: c0b2 513d b11d fb3d e654 823d cf71 26bd
00000240: 24e9 1dbd d2b6 b6bd 4099 36bd 0574 193d
00000250: 6d39 28bc 7486 aebd 4c0b 89bd 8197 2cbd
00000260: af6b 4b3d fc5f 963d 0b47 b5bd 06a1 0dbd
00000270: 531c 3c3b f156 873d 96a7 56bd 30eb dd3d
00000280: ffa9 c8bd 0600 cbbd b8c7 c53c 4cdc 5e3d
00000290: 89a2 acbd a0cc babd 89b8 9fbd 736f 81bd
000002a0: c9d0 0ebe b7bd 833d 6162 003d f27e e9bd
000002b0: 6141 30bd b739 8f3d a161 5a3d 24b4 14be
000002c0: 47ef fcbc b8d8 c63d 7665 2bbd 9d42 6e3d
000002d0: c456 ce3d 154e 953d 7ed7 153d 9254 12bd
000002e0: 0f86 5dbc 94a8 f43d 1b06 32bd bcdc 043e
000002f0: c88a 1dbd 868d 40bd 6bb8 bf3d b91a 643b
00000300: 443e 1e3c e531 51bc c4ca 39bd 1548 11be
00000310: b595 2cbd 40f1 ea3d 88e6 803c 5a67 08be
00000320: 8bd1 093d db7b 513d 63a7 84bd 86aa 023d
00000330: 4bfd 2fbc c107 a83c 6647 b6bd 18f2 f93d
00000340: 7d06 3abd 9101 f23b 59b2 483d 74ad da3d
00000350: 330d 283b d89e adbd 0639 98bb 1f60 dabc
00000360: 98e7 9c3d cbd7 9bbd 5ed3 81bd abd1 b03d
00000370: ff4a c2bd 78e5 d03c 874d bebd 7034 cd3d
00000380: 0629 053d 5707 e33d 9b9f a13d 679a 5c3d
00000390: 1fdb b53b 79a8 083d 1160 e23d 454d 0b3e
000003a0: 0488 65bc d4f3 60bd eefa d73c 2428 92bd
000003b0: 30a7 7cbd 95e2 cbbd d78d 6b3d 9f11 31be
000003c0: b7b2 873d 53fa 053d 261f d3bd 1940 973d
000003d0: 8d2e c0bc 3468 9c3b 253c d63c c8a7 bd3d
000003e0: 1fb8 783d 000e f0bb 25db 0fbd afc3 0dbd
000003f0: 1a3a 7d3d dc52 82bd 4b8c c5bd 7e36 91bb
0.06508591 -0.05840082 -0.03801758 -0.038982656 0.016909495 -0.12671608 -0.117861874 -0.03670354
0.02261573 -0.018629244 -0.018127147 -0.01786992 0.084554225 -0.04831296 -0.08560458 -0.018912142
0.10475587 -0.041913003 -0.0074093197 -0.17005043 0.06317655 0.028098378 -0.10077274 -0.017993307
-0.037673607 0.08764493 0.035089042 -0.019723501 0.067619935 0.10934768 -0.024150856 -0.0040176883
0.13635156 0.087097004 -0.07896831 -0.10972751 -0.0765028 -0.020991838 -0.07960838 0.054733142
-0.04210845 -0.10093137 -0.015251069 -0.038172618 -0.1152372 -0.12023912 -0.03232965 0.15251678
0.033494357 0.014942653 0.08363949 0.08117591 0.003210373 0.10177319 0.058987677 0.043022014
-0.06681214 -0.047306467 0.0629216 -0.13975625 -0.02251334 0.023378937 0.06626672 -0.1366273
-0.015038445 0.019645706 -0.1428865 0.09019859 -0.051464498 -0.07278337 -0.038269453 0.092473105
0.12069037 -0.023900589 -0.10006119 0.0019704308 -0.044221375 -0.010269211 -0.09163549 0.023869183
0.07159032 0.05324765 -0.13761577 0.060970694 0.108067356 0.102628306 0.02577661 0.085645534
-0.03370456 0.07063849 -0.06754454 0.046938866 0.018898638 0.055164807 -0.14099793 -0.07636232
0.0036540106 -0.15784355 -0.03832014 -0.05305557 0.0025734846 -0.023324147 -0.16263571 0.045469403
0.07441171 -0.07143029 0.016508887 0.15883575 -0.07865159 0.09170899 1.1251279e-05 0.079463586
0.008412421 0.038821705 -0.10553398 0.0820972 0.069528334 0.038654745 -0.05790884 -0.14546074
-0.0016680992 0.03837413 -0.11434045 -0.016640613 -0.12815242 0.060282886 -0.042100456 0.054496374
-0.06523923 -0.105035275 0.006386566 -0.022960985 -0.13227732 0.008043272 0.050918497 -0.09451883
0.073818386 0.07674702 -0.090724885 -0.04660478 0.05119586 0.122615226 0.06363849 -0.04063588
-0.03855242 -0.08921589 -0.044579744 0.03746416 -0.010267598 -0.08521739 -0.06691608 -0.042136673
0.049663242 0.07342526 -0.08851441 -0.034577392 0.0028703406 0.0660838 -0.052405916 0.10835874
-0.09798049 -0.09912114 0.024143085 0.05440931 -0.084294386 -0.0912106 -0.07798869 -0.063200854
-0.13946833 0.064326696 0.03134382 -0.11401166 -0.0430311 0.0699343 0.053315762 -0.14521843
-0.030875815 0.097093046 -0.041844808 0.058168996 0.10075143 0.072902836 0.036582462 -0.035725184
-0.013520732 0.11946216 -0.043462854 0.12974828 -0.03846243 -0.047009967 0.09361347 0.0034805967
0.0096584 -0.012768243 -0.045359388 -0.14187653 -0.04213496 0.11471796 0.015734926 -0.13320675
0.0336471 0.05114351 -0.06477239 0.031900905 -0.010741542 0.02051151 -0.08900337 0.12204379
-0.045416344 0.0073854406 0.04899821 0.10677615 0.0025642633 -0.08477563 -0.0046454696 -0.026657162
0.076613605 -0.076095186 -0.06339143 0.08633741 -0.094869606 0.025500044 -0.09292131 0.10019767
0.032509826 0.11085384 0.078917705 0.053858187 0.005549803 0.033363793 0.110534795 0.13603695
-0.014009479 -0.054920033 0.02636477 -0.071365625 -0.06168288 -0.099553265 0.057508316 -0.17291878
0.06625884 0.03270943 -0.103086755 0.073852725 -0.023459697 0.004773164 0.026151726 0.09260517
0.060722467 -0.0073258877 -0.035121102 -0.034610447 0.061822988 -0.063634604 -0.096458994 -0.004431545

network.8.bias f4 [32]
00000000: bb71 6dbd 96a0 c1bb 26b8 2bbd a0bf a53b
00000010: db82 873b b4c7 86bb ada5 233c fbad e23c
00000020: f626 64bd 36eb db3d 6169 8fbd f352 3f3c
00000030: a017 f43c 2d12 683e cd3a 56bb 322b 713d
00000040: 4beb 00bd 4eda e73d 5dce 7bbd 0c61 bd3d
00000050: db8b bb3d b648 e53d c025 ea3d ab45 29bd
00000060: f6a1 cc3d 0646 853d 5dc4 343e b4d5 813d
00000070: f469 c93d 6e74 0b3e 81f9 cc3c c512 9d3d
-0.05796979 -0.005909036 -0.041923665 0.005058244 0.0041354722 -0.004113162 0.009988231 0.027670851
-0.05570122 0.10738222 -0.07002521 0.0116774915 0.029796422 0.22663184 -0.0032688857 0.058879085
-0.031474393 0.11320935 -0.0614761 0.09247026 0.09157535 0.11195509 0.114329815 -0.041326206
0.09991829 0.065074965 0.17653032 0.06339589 0.09834662 0.13618633 0.025021316 0.07669596

network.11.weight f4 [32]
00000000: c9ea 8f3f eeaa 8d3f a4ae 8f3f 1502 8d3f
00000010: be9a 8d3f 7f36 a83f 414d 943f c42f a33f
00000020: d438 9b3f 9a13 a23f 43b1 8c3f e525 a33f
00000030: 8874 893f 3413 953f 2954 933f 9a41 953f
00000040: 631e 933f 4744 973f 8779 9b3f 78fd 8f3f
00000050: de96 973f a0bb 8f3f 9039 8b3f 5c7b 8c3f
00000060: 9375 923f 094f 903f ba48 963f 6f53 903f
00000070: 4ab7 9f3f 9617 933f eb77 933f 9f84 8f3f
1.1243526 1.1067789 1.1225171 1.101626 1.1062849 1.3141631 1.1586076 1.2748952
1.2126718 1.2662232 1.0991596 1.274594 1.0738688 1.1646485 1.1510059 1.1660645
1.1493648 1.1817712 1.2146462 1.1249228 1.1842916 1.1229134 1.0876942 1.0975146
1.1442131 1.127412 1.1740944 1.1275462 1.247781 1.1491573 1.1520971 1.1212348

network.11.bias f4 [32]
00000000: 86e4 0bbd f213 11bd 36a9 113d 7b30 0c3d
00000010: 3f56 183d 0ab7 68bd ba92 193d 735d 6e3d
00000020: 7aca 1bbd 1673 48bd 9819 0b3d 3797 51bd
00000030: fe44 0d3d 3c1c 0f3d 7f54 163d 2049 193d
00000040: 2a4b 143d b7ed 12bd af9b 17bd 842a 133d
00000050: 7e29 13bd fbe8 133d 2565 0b3d d78a 113d
00000060: 2e42 133d b036 103d 4dda 193d 7221 0ebd
00000070: e263 403d 59eb 153d f854 3e3d 4c64 143d
-0.034153484 -0.035419412 0.035561763 0.034225922 0.037191626 -0.056815185 0.037493445 0.05819459
-0.038034894 -0.04893788 0.033959955 -0.0511696 0.034489624 0.034939036 0.036701676 0.037423253
0.036204495 -0.035871234 -0.037013706 0.035929218 -0.035928242 0.03611086 0.034032006 0.0355328
0.035951786 0.035208404 0.037561703 -0.034699865 0.046970256 0.0366014 0.04646775 0.036228463

network.11.running_mean f4 [32]
00000000: 8829 cf3e 5210 f33e 82c2 053f 7e4e 0a3f
00000010: 9a62 f33e 3c2e 213f a399 1d3f 966e 523f
00000020: fa96 053f 5a11 223f e3ce 093f 0b23 0f3f
00000030: 6ca6 f13e 049c 5b3f df3d 263f 3e86 383f
00000040: c925 2d3f cb46 183f 537a 173f 0e87 0c3f
00000050: 48b8 1f3f 5ffb 103f 389a 263f a9f8 0e3f
00000060: 9d26 223f dd93 223f f7bf 0e3f 4db9 0d3f
00000070: 2378 333f 6bcd 1d3f b1d4 1a3f ba3f 143f
0.40461373 0.4747339 0.5224992 0.5402602 0.47536165 0.62961173 0.61562556 0.8219999
0.52183497 0.63307726 0.5383131 0.55912846 0.47197282 0.85784936 0.6493816 0.7207984
0.6763578 0.5948302 0.59171027 0.5489358 0.62390566 0.5663356 0.6507907 0.55848175
0.6334017 0.6350687 0.55761665 0.5536087 0.7010519 0.6164157 0.6048079 0.5790974

network.11.running_var f4 [32]
00000000: a844 0f3f 7a79 333f 7ac7 1d3f 08f0 343f
00000010: 03b1 153f fa22 693f 4667 703f b626 c63f
00000020: d226 2c3f b112 4c3f addd 843f 0af7 5d3f
00000030: 5697 413f 7d1a de3f 7f34 673f 735b 943f
00000040: fe16 843f a02e 593f d551 673f 20b6 2c3f
00000050: 3793 793f 2fc8 663f 4c8b 5c3f 2552 3a3f
00000060: cfd9 743f 94b5 843f 49ea 393f ab67 563f
00000070: 7357 843f b0b3 593f e314 733f 25ce 523f
0.55964136 0.70107234 0.616325 0.7067876 0.58473223 0.91068995 0.9390758 1.5480564
0.67246735 0.7971602 1.038015 0.86705077 0.75621545 1.7351834 0.9031448 1.1590408
1.0319517 0.8483677 0.9035924 0.674654 0.9749026 0.90149206 0.8615005 0.7278159
0.9564485 1.0367913 0.72623116 0.83751935 1.0339187 0.85039806 0.94953746 0.823458

network.12.weight f4 [1, 32]
00000000: a5c3 86be 1913 4ebe 7728 643e befc 823e
00000010: f4da 3f3e 132e 2fbe 3886 5e3e 4c2b 1a3e
00000020: 6303 8abe 85a4 43be 718a 813e 40f1 20be
00000030: 424b 313e 1158 933e 08c2 7c3e 3916 813e
00000040: dc59 863e bc90 a4be ba4e 95be 0164 6d3e
00000050: c9c9 a4be 5fed 463e f476 703e 615d 4a3e
00000060: 2f82 7f3e b300 873e 0076 723e 97f5 8cbe
00000070: 6482 213e 60a4 863e 297c c63d cc38 6d3e
-0.2632114 -0.20124473 0.22281061 0.25583452 0.18735868 -0.1710742 0.21730888 0.15055579
-0.2695571 -0.19105728 0.25300935 -0.1571703 0.17313865 0.28778127 0.24683392 0.25212267
0.26240432 -0.32141674 -0.29161626 0.2318268 -0.321852 0.19426487 0.23482877 0.19762184
0.24952005 0.2636772 0.23677826 -0.2753112 0.15772396 0.26297283 0.096916504 0.23166198
