model/ai_model.pt (torch, 75387 bytes, 19 tensors)

weight f4 [128, 36]
-0.033545714 -0.11187841 0.12526232 0.008808575 0.046550654 -0.074773505 0.17262946 -0.045703217
0.1785402 -0.045408517 0.011316794 -0.060675424 0.11591971 -0.009587391 -0.07317498 -0.051376075
-0.06013152 0.14672531 -0.03801327 -0.047207456 0.06285587 0.08174844 0.18217413 -0.15129964
0.06355011 0.12061836 0.021222642 0.05700183 -0.12734802 -0.04460282 0.0025572267 -0.13218796
0.06593763 0.10419362 -0.16986032 0.19385602 0.02480498 0.052235663 -0.1638782 0.062410828
0.11082281 -0.18943295 -0.09941282 -0.13638262 0.028217029 -0.13414139 -0.07350779 0.04257086
0.05559145 0.11527123 0.1362786 0.04138717 -0.05058473 0.05378008 0.15059781 0.13479142
-0.16661096 0.06702788 -0.1173664 -0.09197463 -0.14321686 0.102911636 0.038643345 0.0717643
-0.11671811 0.068824135 -0.19154428 0.092625454 0.07561624 -0.19631909 -0.17360015 0.030455535
-0.026646584 0.15428227 0.18030278 0.04098265 0.09743914 0.021851556 0.11410119 0.06143901
0.06106807 -0.05655401 0.008285258 0.0150038535 0.0033955583 0.03608397 0.059709914 0.09364644
0.08622271 -0.13885033 0.009935567 0.01519276 -0.10081251 0.100651704 0.08073936 -0.037330557
0.011201979 0.05757625 0.060662594 0.12846984 -0.04696252 0.073897325 -0.058550227 0.102897756
-0.06226714 0.06406837 0.1472714 -0.18865266 -0.032255873 0.21191809 -0.020207595 -0.1831938
-0.18309774 -0.28058204 -0.23174365 -0.05590278 -0.009736582 -0.0071300846 -0.026510589 0.04252878
-0.032114413 0.0014536637 -0.050614964 0.013941882 -0.06878344 0.0013356642 -0.017683936 -0.16688246
0.04147689 -0.009010059 -0.036398564 -0.015422007 -0.050683744 -0.061656397 -0.07599869 -0.015257426
-0.14601558 0.012957326 -0.023838717 -0.034370176 0.0050908807 -0.0055220793 -0.060483903 -0.013088629
-0.02637357 0.23857874 0.3434182 0.39810252 0.15047413 0.3108417 0.5871361 0.11417748
0.16891475 -0.020421114 0.10863338 -0.112036325 0.03644177 0.055041276 0.07956028 0.16820762
0.20375206 0.14256427 0.10556257 0.07059467 0.1782181 -0.103696756 -0.062971495 0.06377153
0.07296803 0.06143481 0.13773137 0.02765643 0.07350085 -0.023206122 0.100947075 -0.034182563
-0.017964236 -0.06312669 0.014108297 -0.03902073 -0.16502482 0.12041804 0.2915555 0.16682467
0.20697443 0.14777438 0.530336 0.029158184 0.14837547 -0.05740464 0.15287074 0.100666374
0.041376073 0.07049914 0.03376191 0.10444405 -0.08859561 0.04540954 0.18644917 0.071280606
0.07334129 0.15430743 0.21399768 0.06856573 0.119717054 0.14153127 0.07578878 0.04103556
-0.005369391 -0.030038744 0.06735615 -0.10068452 -0.123639084 -0.031779718 -0.02689151 0.0031036544
0.048718322 -0.14547853 0.0019901649 -0.07764146 0.02756711 -0.14411007 -0.14543985 0.010642455
-0.012381504 -0.12859179 -0.10562737 0.0013779284 0.20769036 0.03330569 0.2060495 0.093357034
0.00830271 -0.059306834 0.05102061 -0.13035028 0.031085264 0.041925468 0.029680343 -0.2213591
0.038030826 -0.09186617 -0.029062085 0.029883249 -0.022225868 0.03194291 -0.13276345 0.07776313
0.101294205 0.075999126 0.15687105 0.05037352 -0.023910511 0.10041542 0.17427644 -0.07768933
00000000: 3b67 09bd 8220 e5bd c444 003e d751 103c
00000010: e6ab 3e3d da22 99bd c7c5 303e 4c33 3bbd
00000020: 3ed3 363e 48fe 39bd 136a 393c cb86 78bd
00000030: 5067 ed3d 6f14 1dbc c4dc 95bd b86f 52bd
00000040: 784c 76bd 293f 163e cdb3 1bbd 9b5c 41bd
00000050: 94ba 803d ba6b a73d db8b 3a3e 4bee 1abe
00000060: 8f26 823d c206 f73d 1bdb ad3c c07a 693d
00000070: 8567 02be 72b1 36bd 2597 273b 485c 07be
00000080: 4f0a 873d 7763 d53d ddef 2dbe 3182 463e
00000090: d033 cb3c 10f5 553d b0cf 27be 7fa2 7f3d
000000a0: 12f7 e23d b6fa 41be f398 cbbd e3a7 0bbe
000000b0: 6627 e73c 5c5c 09be 418b 96bd c85e 2e3d
000000c0: dcb3 633d 5313 ec3d 9e8c 0b3e 9885 293d
000000d0: ef31 4fbd 8048 5c3d 5036 1a3e c306 0a3e
000000e0: 109c 2abe ea45 893d cc5d f0bd 325d bcbd
000000f0: 71a7 12be 56c3 d23d 7c48 1e3d 29f9 923d
00000100: e809 efbd abf3 8c3d 2f24 44be 6ab2 bd3d
00000110: b0dc 9a3d df07 49be 3dc4 31be e37d f93c
00000120: f049 dabc 2cfc 1d3e 4ba1 383e 6cdd 273d
00000130: 2c8e c73d 0902 b33c e2ad e93d 79a7 7b3d
00000140: 8322 7a3d 2da5 67bd e4be 073c b9d2 753c
00000150: 0488 5e3b c9cc 133d 6292 743d b4c9 bf3d
00000160: 8895 b03d c82e 0ebe cac8 223c 0eeb 783c
00000170: ca76 cebd 7b22 ce3d ad5a a53d ede7 18bd
00000180: 8188 373c 13d5 6b3d 5779 783d 998d 033e
00000190: c55b 40bd 7b57 973d 5dd2 6fbd 0fbc d23d
000001a0: d40b 7fbd 4736 833d 50ce 163e 2a2e 41be
000001b0: bc1e 04bd 0e01 593e 668a a5bc 2897 3bbe
000001c0: f97d 3bbe 73a8 8fbe 354e 6dbe 50fa 64bd
000001d0: 2f86 1fbc 7ca3 e9bb bc2c d9bc a832 2e3d
000001e0: 678a 03bd dc88 be3a a351 4fbd 7e6c 643c
000001f0: 55de 8cbd 7411 af3a e7dd 90bc 3ce3 2abe
00000200: ace3 293d ed9e 13bc a916 15bd 96ac 7cbc
00000210: c299 4fbd 6b8b 7cbd 34a5 9bbd 48fa 79bc
00000220: 1c85 15be f74a 543c 6a49 c3bc bec7 0cbd
00000230: 67d1 a63b 8ff2 b4bb f8bd 77bd b071 56bc
00000240: 630d d8bc fc4d 743e 83d4 af3e 18d4 cb3e
00000250: e415 1a3e a526 9f3e 8d4e 163f e2d5 e93d
00000260: fdf7 2c3e 2e4a a7bc 2d7b de3d 4d73 e5bd
00000270: f743 153d f672 613d 80f0 a23d 9e3e 2c3e
00000280: 61a4 503e 5efc 113e 3031 d83d f093 903d
00000290: ce7e 363e f75e d4bd 33f7 80bd a69a 823d
000002a0: 4370 953d 11a3 7b3d 7409 0d3e bd8f e23c
000002b0: 9d87 963d c41a bebc 57bd ce3d 0403 0cbd
000002c0: bc29 93bc 9148 81bd 7d26 673c 33d4 1fbd
000002d0: 44fc 28be bc9d f63d c346 953e 16d4 2a3e
000002e0: 1bf1 533e 2b52 173e 1ac4 073f 25dd ee3c
000002f0: bdef 173e 2121 6bbd 268a 1c3e 2c2a ce3d
00000300: f579 293d da61 903d ee49 0a3d c3e6 d53d
00000310: 9d71 b5bd 5bff 393d 88ec 3e3e 91fb 913d
00000320: f533 963d c402 1e3e 3522 5b3e 306c 8c3d
00000330: 372e f53d 93ed 103e 2637 9b3d e714 283d
00000340: b7f1 afbb d013 f6bc 05f2 893d b033 cebd
00000350: 7d36 fdbd 732b 02bd 954b dcbc ae66 4b3b
00000360: dd8c 473d 53f8 14be 6d6d 023b 7c02 9fbd
00000370: 6bd4 e13c 9791 13be 2fee 14be b15d 2e3c
00000380: cbdb 4abc 91ad 03be 2a53 d8bd 9b9b b43a
00000390: c8ac 543e 8c6b 083d a4fe 523e f931 bf3d
000003a0: 1708 083c b9eb 72bd fdfa 503d 8b7a 05be
000003b0: 86a6 fe3c 0aba 2b3d 3124 f33c f6ab 62be
000003c0: 36c6 1b3d 5524 bcbd 9c13 eebc b7cd f43c
000003d0: 0613 b6bc 92d6 023d 24f3 07be 4742 9f3d
000003e0: 5673 cf3d 6ea5 9b3d cea2 203e 7754 4e3d
000003f0: fadf c3bc 9aa6 cd3d 8675 323e 951b 9fbd

bias f4 [128]
0.016995745 -0.08815481 -0.02795501 0.15638883 0.09572874 -0.02689356 0.05218437 0.03167584
-0.008842235 0.056268923 0.041272253 -0.001767648 0.038690485 0.041545566 -0.018954117 0.048757862
-0.07013023 -0.016895132 -0.010339887 0.22563368 0.0015263223 -0.034681123 0.0017504451 0.022022918
0.028005727 0.08374589 -0.008626369 0.014645305 0.22518945 -0.08227555 -0.080571465 0.09414041
0.018131165 -0.0044607185 -0.102684945 -0.043876436 -0.017020563 -0.023927536 0.04100569 0.0063268915
0.018942958 -0.11909837 -7.0558563e-12 -0.026658362 0.14375734 -0.061327316 -0.025165891 -0.06075969
-0.0017522078 -0.015245771 0.068140246 0.15545368 -0.004776312 0.24094047 -0.051125247 -0.05241571
0.05214874 0.00666383 0.016229898 0.026875876 -0.0122215785 0.029840626 -0.08996078 0.026320592
-0.024244923 0.025983395 -0.039312117 -0.028443798 -0.03865738 -0.07537367 0.14594936 -0.058778837
-0.019419212 -0.04305767 -0.038582075 -0.09543423 0.013931325 -0.030242248 2.2982684e-08 -0.021910656
-0.00044293102 -0.05143999 -0.040438686 0.027938109 -0.028871123 0.050002802 0.15857641 -0.0029925362
-0.025808034 0.06687374 0.020214204 -0.0507156 -0.008050327 -0.07587748 -0.028200146 -0.009718255
0.028909342 0.024758136 -0.010124077 -0.038276322 0.00022596827 -0.035065673 0.13332042 -0.008476597
0.11707226 -0.0026209124 0.030330863 0.1502674 -0.08519457 -0.0051858295 -0.037657246 0.10920197
-0.041001175 0.004536985 0.13677964 0.25720304 0.046904255 0.056945823 -0.019283215 0.19451737
-0.044541392 -0.036700618 -0.02534881 0.054692034 -0.031827517 0.019427858 -0.064536236 0.013556062
00000000: a93a 8b3c 828a b4bd e801 e5bc 6524 203e
00000010: 6e0d c43d e24f dcbc 47bf 553d 87be 013d
00000020: 06df 10bc 3e7a 663d 180d 293d 6db0 e7ba
00000030: ea79 1e3d af2b 2a3d aa45 9bbc 53b6 473d
00000040: 70a0 8fbd a967 8abc a168 29bc 840c 673e
00000050: e10e c83a cb0d 0ebd 316f e53a 6869 b43c
00000060: 446c e53c f782 ab3d 9d55 0dbc ddf2 6f3c
00000070: 1098 663e 1580 a8bd a702 a5bd b0cc c03d
00000080: cf87 943c 382b 92bb 7c4c d2bd c7b7 33bd
00000090: b56e 8bbc ae03 c4bc 95f5 273d d051 cf3b
000000a0: 432e 9b3c d9e9 f3bd 8141 f8ac a362 dabc
000000b0: 2035 133e 5a32 7bbd b328 cebc 27df 78bd
000000c0: 56aa e5ba 66c9 79bc 1d8d 8b3d 402f 1f3e
000000d0: 9c82 9cbb 19b9 763e b568 51bd dbb1 56bd
000000e0: eb99 553d 425c da3b 90f4 843c cc2a dc3c
000000f0: 043d 48bc 5474 f43c 5c3d b8bd 489e d73c
00000100: 4a9d c6bc 21db d43c be05 21bd f802 e9bc
00000110: 3357 1ebd 835d 9abd c073 153e 14c2 70bd
00000120: 0a15 9fbc 3d5d 30bd 3d08 1ebd 0673 c3bd
00000130: 3640 643c 97be f7bc 756b c532 fa7d b3bc
00000140: 3239 e8b9 bdb2 52bd 09a3 25bd 76de e43c
00000150: 2283 ecbc bdcf 4c3d db61 223e 6d1e 44bb
00000160: 5f6b d3bc 19f5 883d 4298 a53c 29bb 4fbd
00000170: 85e5 03bc a765 9bbd fe03 e7bc 5139 1fbc
00000180: 49d3 ec3c 93d1 ca3c 75df 25bc a2c7 1cbd
00000190: e5f1 6c39 06a1 0fbd 2685 083e 6de1 0abc
000001a0: 95c3 ef3d 9dc3 2bbb 6e78 f83c b3df 193e
000001b0: 7e7a aebd e4ed a9bb 7c3e 1abd 48a5 df3d
000001c0: d9f0 27bd fdaa 943b f60f 0c3e 1eb0 833e
000001d0: ad1e 403d 0640 693d d5f7 9dbc 902f 473e
000001e0: 0971 36bd 6353 16bd 4fa8 cfbc c104 603d
000001f0: 925d 02bd 2c27 9f3c 932b 84bd 3f1a 5e3c

weight f4 [128]
0.7023367 0.8676459 0.81357884 0.98647046 1.1118226 1.0042328 0.8375926 0.47262302
0.9269495 0.75683874 1.0773432 6.773414e-06 1.0618534 0.83119506 0.3871175 0.7383095
0.77314633 0.8683893 0.6868305 1.1352711 0.3875284 1.0131664 0.9118984 1.152109
0.97767234 0.7816938 0.8628072 0.8532234 0.9190653 1.0446577 0.8211532 0.7925219
0.89159364 0.12642355 1.2032573 0.9042423 0.6898735 0.687331 0.79310596 0.7925484
0.8869354 0.7819958 8.599611e-24 0.8336607 0.8359564 0.74514157 0.99686754 1.0379683
1.4217019e-21 0.80904025 0.8387811 0.64333344 3.7617727e-05 0.97249496 0.81203336 0.88586736
0.8517071 0.92261297 0.7840889 0.80423975 1.0250131 0.8696463 1.0299689 0.71033484
0.44878682 0.916826 0.96223253 0.9606601 0.740729 0.5405628 0.8841409 0.7127451
0.85105616 0.89656836 0.83858067 0.82027096 1.0790982 0.7076057 1.0030138 0.60865664
0.58266246 0.34096467 0.7204671 0.90834785 1.0680046 1.021764 0.9045003 0.78666043
0.1263119 0.67184967 0.75521463 0.7951998 9.458968e-14 0.7187408 0.7632229 0.818841
1.0804156 0.68061906 0.8608336 0.54856503 0.9886563 0.66649455 1.0153834 0.9494578
0.92839104 0.77757686 0.7220836 1.0606477 1.1331853 0.7701739 0.7041978 0.80122185
1.1010404 0.7527607 1.1082692 1.0877712 0.8562773 0.8303186 0.4204686 1.086727
0.7894541 0.70035166 0.6654309 0.8913584 0.8891941 0.7073296 0.98488224 0.80378413
00000000: 57cc 333f 0b1e 5e3f b446 503f 5489 7c3f
00000010: 3450 8e3f b38a 803f 786c 563f a5fb f13e
00000020: 904c 6d3f 2fc0 413f 62e6 893f 2f47 e336
00000030: d0ea 873f 33c9 543f 4434 c63e da01 3d3f
00000040: ebec 453f c34e 5e3f 20d4 2f3f 9050 913f
00000050: 1f6a c63e 70af 813f 2c72 693f 4f78 933f
00000060: bc48 7a3f 161d 483f efe0 5c3f d96c 5a3f
00000070: dd47 6b3f 58b7 853f 1937 523f b7e2 4a3f
00000080: 7b3f 643f 2d75 013e 5604 9a3f 6c7c 673f
00000090: 8d9b 303f edf4 2f3f fe08 4b3f 74e4 4a3f
000000a0: 330e 633f e030 483f 3657 2619 ca6a 553f
000000b0: 3d01 563f 99c1 3e3f b632 7f3f 25dc 843f
000000c0: 6ed7 d61c 431d 4f3f 5cba 563f 80b1 243f
000000d0: bac7 1d38 6ef5 783f 6be1 4f3f 34c8 623f
000000e0: 7a09 5a3f 5d30 6c3f 0dba 483f a8e2 4d3f
000000f0: a133 833f 24a1 5e3f 05d6 833f 81d8 353f
00000100: 63c7 e53e 1cb5 6a3f df54 763f d2ed 753f
00000110: 6aa0 3d3f 5362 0a3f 0f57 623f 7676 363f
00000120: d1de 593f 8185 653f 39ad 563f 47fd 513f
00000130: e41f 8a3f a625 353f c262 803f ecd0 1b3f
00000140: 5e29 153f ec92 ae3e 8870 383f 7c89 683f
00000150: 60b4 883f 2ac9 823f 558d 673f 9462 493f
00000160: e857 013e 57fe 2b3f bf55 413f 3792 4b3f
00000170: 3dff d429 66ff 373f 9362 433f 909f 513f
00000180: 0f4b 8a3f 0d3d 2e3f 975f 5c3f c26e 0c3f
00000190: 9418 7d3f 639f 2a3f 15f8 813f ab0f 733f
000001a0: 09ab 6d3f 470f 473f 79da 383f 4ec3 873f
000001b0: 370c 913f 1e2a 453f 4f46 343f e01c 4d3f
000001c0: e4ee 8c3f edb4 403f c4db 8d3f 163c 8b3f
000001d0: fd34 5b3f c38f 543f a947 d73e df19 8b3f
000001e0: aa19 4a3f 3f4a 333f ae59 2a3f 1030 643f
000001f0: 39a2 633f 8d13 353f 3e21 7c3f ccc4 4d3f

bias f4 [128]
0.10577527 -0.09024313 -0.0041425824 0.00726984 0.0449253 0.14512485 0.039146237 -0.035965197
-0.0062514497 -0.035400577 -0.055151764 0.107465036 -0.047703538 0.022376375 0.037057642 -0.043904766
-0.15949158 -0.02681942 -0.10545632 0.0024139772 0.07816725 0.03756888 0.07958963 0.17080677
0.023924109 -0.13427882 0.04521948 -0.11484049 -0.027310561 -0.060055662 0.0019220787 0.01883651
-0.018486045 0.0823025 0.03113657 0.013885307 -0.014994978 -0.017322935 -0.07536111 -0.11464195
-0.06006197 0.097712666 0.040616054 -0.029716693 0.008244044 0.10526594 -0.011473886 -0.041018214
-0.047535315 0.103202164 0.031359434 -0.042920154 -0.013524524 -0.032352965 0.070561506 -0.052752253
0.0007837846 0.023497034 0.008594746 -0.08710252 0.058147125 0.071374305 0.1640245 0.04800174
-0.008889565 0.073331356 -0.05934238 0.011805294 0.09121292 0.051309414 -0.050638936 -0.15283038
-0.014061062 0.0022432145 0.0025870788 0.10911245 0.10914227 -0.09653461 0.15264328 0.08506773
0.02718809 0.080766864 0.03898953 -0.033062283 0.0859044 0.08443241 -0.10899291 0.16405167
0.0359552 0.06346002 -0.09498977 0.018165728 0.1392574 -0.034795135 -0.0071934457 0.027435604
0.15191936 -0.16298135 0.05340284 -0.08955438 0.09711632 0.022958824 0.037594847 0.048191357
0.048208334 0.011873735 -0.08552589 0.0068654525 0.065175734 -0.05007167 -0.13975939 -0.008646629
0.1674357 0.041520637 -0.036753636 -0.0023188703 -0.06927109 -0.100464 0.201326 0.13436642
-0.15280096 -0.10348446 -0.025229836 0.06551406 0.038554247 0.010639523 0.13397802 0.0001852948
00000000: b4a0 d83d 64d1 b8bd 80be 87bb d737 ee3b
00000010: 9703 383d 9c9b 143e ce57 203d 3e50 13bd
00000020: f6d8 ccbb 3200 11bd d1e6 61bd a116 dc3d
00000030: c964 43bd a94e b73c c1c9 173d 7cd5 33bd
00000040: c351 23be 66b4 dbbc 7cf9 d7bd d133 1e3b
00000050: 2716 a03d d3e1 193d e3ff a23d f8e7 2e3e
00000060: 7efc c33c 6380 09be 1038 393d 7e31 ebbd
00000070: 66ba dfbc edfc 75bd 42ee fb3a 064f 9a3c
00000080: 0c70 97bc 378e a83d 1f12 ff3c 337f 633c
00000090: 7fad 75bc d4e8 8dbc ed56 9abd 66c9 eabd
000000a0: 8a03 76bd 941d c83d 055d 263d 6c70 f3bc
000000b0: 0712 073c ab95 d73d f7fc 3bbc b702 28bd
000000c0: 64b4 42bd a85b d33d c072 003d 0bcd 2fbd
000000d0: f795 5dbc 8b84 04bd 8d82 903d bf12 58bd
000000e0: e576 4d3a da7c c03c fad0 0c3c ce62 b2bd
000000f0: ae2b 6e3d b12c 923d 0af6 273e 799d 443d
00000100: 8aa5 11bc c02e 963d ff10 73bd fe6a 413c
00000110: d7cd ba3d d229 523d c66a 4fbd 917f 1cbe
00000120: 5e60 66bc e502 133b fb8b 293b 5976 df3d
00000130: fc85 df3d f0b3 c5bd 854e 1c3e fd37 ae3d
00000140: 8fb9 de3c 1969 a53d 7cb3 1f3d 516c 07bd
00000150: a5ee af3d e6ea ac3d ad37 dfbd 29fd 273e
00000160: c345 133d 54f7 813d ff89 c2bd 4bd0 943c
00000170: 7e99 0e3e 5885 0ebd ffb6 ebbb a2c0 e03c
00000180: c090 1b3e 95e4 26be f0bc 5a3d 4968 b7bd
00000190: ece4 c63d 2514 bc3c 0efd 193d 4d64 453d
000001a0: 1a76 453d 0e8a 423c 3328 afbd 97f7 e03b
000001b0: db7a 853d f417 4dbd 161d 0fbe 97aa 0dbc
000001c0: 4474 2b3e 8b11 2a3d fb8a 16bd 30f8 17bb
000001d0: 00de 8dbd 12c0 cdbd 6728 4e3e 5a97 093e
000001e0: db77 1cbe a9ef d3bd cdae cebc 3c2c 863d
000001f0: 0feb 1d3d 6551 2e3c 8931 093e b24b 4239

running_mean f4 [128]
0.15341528 4.428635e-05 2.5076506 0.0044370578 1.488603 0.70827824 3.297694 0.0011413539
0.8708383 1.5540395 2.0359044 6e-45 1.2150098 2.6660911e-05 2.8389825e-06 0.16737552
0.0022746618 1.6753869 0.035246216 0.36948004 0.03207332 0.83372027 1.9437122 0.8523102
1.2135593 0.10360482 1.5342267 0.31063455 0.2831818 1.843598 0.24349298 3.4399133
0.085705884 2.114226e-06 0.9795633 3.7878506 6e-45 1.7051073 0.01361404 2.2666535
1.0944403 3.993013e-27 6e-45 0.29229987 0.96015596 0.00020002379 0.8174684 0.66487193
6e-45 3.9501226 0.73353887 1.0882567 6e-45 0.516948 1.1474508e-24 0.0014696039
1.7457308 1.2796077 0.20620716 0.023026917 0.30179766 0.0018170251 0.11382648 3.826049e-13
6e-45 0.25187224 0.010435439 1.3490179 0.11744479 6e-45 0.80961037 4.26e-43
1.0746448 0.6957809 0.43877196 6.2535015e-05 1.6058112 6e-45 2.2330687 3.5851224e-06
6e-45 6e-45 0.00034028417 1.577983 1.499771 1.4892378 0.0042785415 0.04720203
6e-45 2.725057 1.1734508 3.8535756e-05 6e-45 6e-45 0.15553683 0.008209161
0.19293165 1.7099297 0.10493582 0.0014488137 2.9349556 0.00027705033 0.25366345 0.308189
0.24109712 0.06469567 3.2135563 0.30363134 0.8860248 2.084129 0.00047964146 2.3254092
0.43433776 0.0558979 0.25977305 0.01175736 3.6934412 0.05978161 1.1362642e-06 0.6916852
0.0007754215 6e-45 0.050875407 0.42673025 0.5933195 0.08542689 0.8879801 0.00015242507
00000000: e518 1d3e 1bc0 3938 597d 2040 bd64 913b
00000010: 8b8a be3f b951 353f 6b0d 5340 7b99 953a
00000020: 42ef 5e3f c4ea c63f 424c 0240 0400 0000
00000030: 7185 9b3f dfa5 df37 5985 3e36 7d64 2b3e
00000040: 7e12 153b 1473 d63f 565e 103d 7d2c bd3e
00000050: 505f 033d b16e 553f 90cb f83f 0031 5a3f
00000060: e955 9b3f c42e d43d 8a61 c43f 7e0b 9f3e
00000070: 34fd 903e 05fb eb3f 3956 793e 8a27 5c40
00000080: 9186 af3d 20e2 0d36 a9c4 7a3f 256c 7240
00000090: 0400 0000 f540 da3f 6c0d 5f3c da10 1140
000000a0: 9f16 8c3f f62d 9e13 0400 0000 54a8 953e
000000b0: c8cc 753f 7abd 5139 9c45 513f 0c35 2a3f
000000c0: 0400 0000 cfce 7c40 34c9 3b3f ff4b 8b3f
000000d0: 0400 0000 b456 043f 368f b117 b99f c03a
000000e0: 1b74 df3f 2fca a33f f827 533e f2a2 bc3c
000000f0: 3985 9a3e 3f29 ee3a dc1d e93d 2d63 d72a
00000100: 0400 0000 66f5 803e 67f9 2a3c 9eac ac3f
00000110: e586 f03d 0400 0000 a042 4f3f 3001 0000
00000120: f68d 893f b21e 323f b8a6 e03e 3b25 8338
00000130: 398b cd3f 0400 0000 99ea 0e40 ef97 7036
00000140: 0400 0000 0400 0000 2b68 b239 59fb c93f
00000150: 7ff8 bf3f 589f be3f 0233 8c3b ea56 413d
00000160: 0400 0000 5567 2e40 a333 963f 74a1 2138
00000170: 0400 0000 0400 0000 0c45 1f3e b87f 063c
00000180: e08f 453e fade da3f 97e8 d63d 1fe6 bd3a
00000190: 50d6 3b40 1141 9139 2de0 813e f3ca 9d3e
000001a0: 2ae2 763e 2a7f 843d e8aa 4d40 9175 9b3e
000001b0: 85d2 623f 5f62 0540 6378 fb39 81d3 1440
000001c0: 8561 de3e 32f5 643d f900 853e f1a1 403c
000001d0: 5761 6c40 90dd 743d be81 9835 4812 313f
000001e0: a845 4b3a 0400 0000 bb62 503d 637c da3e
000001f0: c9e3 173f 4bf4 ae3d aa52 633f 4bd4 1f39

running_var f4 [128]
0.14807084 1.7280657e-06 3.1002634 0.0007056597 1.4086933 0.61569774 3.7501216 8.307843e-05
0.8847808 1.3181869 1.0797536 6e-45 1.1181158 4.9421527e-07 1.2939228e-07 0.10830141
0.00027923088 0.7807578 0.016830124 0.1830262 0.010158997 0.65344405 1.060046 0.546868
0.8912616 0.055892717 1.0653754 0.21739091 0.088829055 1.4227903 0.22681968 4.4816113
0.04224003 8.563879e-09 0.7845907 2.2846415 6e-45 1.3281626 0.0035064348 1.2721273
0.68128574 5.479e-29 6e-45 0.3584296 0.29955065 7.114688e-06 0.7474741 0.5075003
6e-45 3.8701997 0.6168727 0.37231606 6e-45 0.2686396 1.1991968e-25 0.00019353462
1.7656862 0.42034903 0.15864475 0.008352622 0.26164976 0.00016862815 0.08089967 1.4958259e-15
6e-45 0.20103192 0.0036209594 1.283418 0.091940515 6e-45 0.42902163 8e-45
0.71754295 0.605255 0.27429038 3.974191e-06 0.94140434 6e-45 1.171129 5.5811412e-08
6e-45 6e-45 1.8830591e-05 1.1420974 1.0076479 1.1903561 0.0010631228 0.02867945
6e-45 3.0558243 0.99108666 5.866434e-07 6e-45 6e-45 0.13230558 0.0023586438
0.13693698 0.61503845 0.05850443 0.00033261342 1.5437362 1.3637316e-05 0.094330005 0.17144279
0.100816354 0.026040316 3.910307 0.10657999 0.74369353 1.7952102 3.8850478e-05 2.9716766
0.24504231 0.019966815 0.117727175 0.002447784 5.516986 0.028990675 1.50012e-07 0.57775307
6.5614e-05 6e-45 0.028238334 0.295516 0.4126651 0.054649733 0.859353 3.8630233e-06
00000000: e29f 173e e3ef e735 b76a 4640 05fc 383a
00000010: 1050 b43f 5e9e 1d3f fe01 7040 643a ae38
00000020: ff80 623f 59ba a83f 5e35 8a3f 0400 0000
00000030: 6b1e 8f3f 37aa 0435 14ef 0a34 21cd dd3d
00000040: bc65 9239 bedf 473f 54df 893c 386b 3b3e
00000050: ec71 263c 1c48 273f 96af 873f 8bff 0b3f
00000060: b829 643f c3ef 643d 395e 883f b99b 5e3e
00000070: 02ec b53d fe1d b63f 6b43 683e 5c69 8f40
00000080: e203 2d3d 5720 1332 f0da 483f 9137 1240
00000090: 0400 0000 3b01 aa3f 37cc 653b 11d5 a23f
000000a0: be68 2e3f bee8 8a10 0400 0000 1684 b73e
000000b0: b45e 993e b4ba ee36 765a 3f3f 8aeb 013f
000000c0: 0400 0000 5ab1 7740 5feb 1d3f 36a0 be3e
000000d0: 0400 0000 218b 893e 1074 1416 8eef 4a39
000000e0: 0102 e23f fd37 d73e c573 223e 70d9 083c
000000f0: f5f6 853e c6d1 3039 baae a53d 3c92 d726
00000100: 0400 0000 50db 4d3e 9e4d 6d3b 0b47 a43f
00000110: 4f4b bc3d 0400 0000 b9a8 db3e 0600 0000
00000120: e5b0 373f fef1 1a3f ca6f 8c3e 0a5a 8536
00000130: e0ff 703f 0400 0000 8ee7 953f 4cb5 6f33
00000140: 0400 0000 0400 0000 63f6 9d37 3f30 923f
00000150: 9bfa 803f 975d 983f 7b58 8b3a 2af1 ea3c
00000160: 0400 0000 a092 4340 dbb7 7d3f d479 1d35
00000170: 0400 0000 0400 0000 1d7b 073e 7a93 1a3b
00000180: 3539 0c3e 2973 1d3f 57a2 6f3d 9e62 ae39
00000190: 2699 c53f d4cb 6437 1730 c13d b38e 2f3e
000001a0: ce78 ce3d 8052 d53c 7842 7a40 9c46 da3d
000001b0: b362 3e3f 73c9 e53f 62f3 2238 f32f 3e40
000001c0: 5fec 7a3e 7291 a33c f21a f13d 006b 203b
000001d0: 268b b040 da7d ed3c fc12 2134 a0e7 133f
000001e0: 3f9a 8938 0400 0000 1454 e73c e04d 973e
000001f0: d748 d33e 66d8 5f3d 8ffe 5b3f 1e9f 8136

weight f4 [64, 128]
0.024726322 0.015255257 -0.22063556 -0.1431781 0.06190555 0.09029242 0.019335922 -0.042332727
0.1264139 -0.06058333 0.0074492553 -0.027877526 -0.014459058 -0.07492151 -0.015677629 -0.068056256
-0.053608898 -0.09339157 -0.0112361135 -0.07232874 -0.027579917 0.10156257 0.0839976 0.06036213
0.14467609 -0.04042116 0.10151312 -0.10192752 0.024303293 -0.014371228 -0.05258017 -0.047478613
-0.045682885 -0.009252978 0.15875727 -0.13477872 0.10423919 -0.0057112672 -0.09994016 0.1024306
0.029413054 -0.021359446 -0.04987691 -0.00041097315 -0.17966478 -0.07313358 -0.13919 -0.04278212
0.03728268 0.08933894 -0.05273298 -0.022251807 0.043313354 -0.009855291 -0.007351956 -0.11606513
0.0695824 -0.023258867 0.06207857 0.020897467 0.119544834 0.0060916883 -0.08491177 -0.10012777
0.0022813787 0.1164024 -0.1586855 0.13517682 -0.08927137 -0.0159145 -0.03734479 0.06567108
-0.026739895 -0.0653089 0.07482319 0.047497705 -0.009753984 0.07062404 -0.078292966 0.02504315
0.042364474 -0.10708913 -0.031024473 0.09500287 0.11801797 0.06882756 -0.10943749 0.07811127
-0.053919457 -0.028698737 -0.14768058 -0.04760479 0.022442937 0.13542168 -0.14120735 0.15962659
0.24036406 -0.06598658 0.102252804 -0.040359825 -0.19937475 0.009872665 -0.09940999 -0.0905674
-0.07022725 0.19992678 0.027785338 -0.2003929 0.048081666 -0.044648644 0.01622933 0.0077741025
-0.088825665 0.010931408 -0.017664138 -0.04136969 -0.12639375 -0.084009215 -0.06890098 -0.05355263
0.015559393 -0.005087738 0.15701702 0.021187168 0.042008195 -0.116977796 0.16254345 -0.10971609
-0.08527141 0.12357002 -0.08517248 0.039270524 -0.17148018 -0.13042422 -0.12503637 -0.018363092
0.06365514 0.030359298 -0.26456982 0.014147457 -0.020054517 0.09172546 0.09890337 0.030135497
0.117054805 0.011774966 0.029360939 0.19023293 -0.022661524 -0.05780886 -0.17625129 -0.17421725
0.06623952 0.12914631 0.07849762 0.033069257 0.14992669 0.048812967 0.02864453 -0.19936493
0.12374127 -0.03565281 -0.15680389 0.1284901 0.09293703 0.10610815 0.025631126 -0.058287695
0.09296235 0.11528679 0.010153147 -0.116529465 0.043161716 0.04130301 -0.15255944 -0.16566992
0.04907662 0.16331565 -0.12898271 0.008065528 -0.013654298 -0.056437608 0.24919993 0.101023264
-0.06323629 -0.120233074 0.017165152 -0.055051196 0.033026405 -0.12616453 -0.063636094 -0.107507996
0.020423952 -0.104005426 -0.1258373 -0.046642866 0.02309691 -0.07057336 0.11700699 0.07710256
-0.20003952 -0.025789876 -0.06413714 0.11856787 0.038062867 0.101947695 -0.1590395 0.062327802
-0.024067722 -0.08826767 -0.16520278 -0.0014336486 -0.07905122 0.05034112 -0.14373207 0.09117805
0.02397568 0.02047358 0.14832115 -0.12189793 -0.039842103 -0.1353963 0.13198455 0.038565964
-0.0012675198 0.14762045 -0.05482562 -0.065710306 -0.10326648 0.12485213 0.21526112 0.20923471
0.08651631 0.030556278 -0.120834835 0.060497712 0.09362986 0.15346374 -0.13542843 -0.04545512
-0.027389357 -0.09083717 0.03242125 -0.0036447889 0.01889902 0.026295573 0.10546042 0.13456868
0.051609833 0.0014147548 -0.04148727 0.2010599 -0.08766902 0.056777347 -0.24477148 0.073133
00000000: db8e ca3c 2ff1 793c 4aee 61be 489d 12be
00000010: ad90 7d3d 3beb b83d 5e66 9e3c 1565 2dbd
00000020: a572 013e 3a26 78bd e218 f43b 695f e4bc
00000030: afe5 6cbc 7370 99bd 5f6e 80bc 1461 8bbd
00000040: 0195 5bbd 1444 bfbd ad17 38bc 1721 94bd
00000050: 47ef e1bc 0900 d03d ef06 ac3d 483e 773d
00000060: f825 143e a990 25bd 1ce6 cf3d 60bf d0bd
00000070: b317 c73c 4d75 6bbc 4e5e 57bd ef78 42bd
00000080: fa1d 3bbd cd99 17bc 4491 223e 6f03 0abe
00000090: 5b7b d53d 9525 bbbb 6dad ccbd 22c7 d13d
000000a0: a5f3 f03c 01fa aebc bb4b 4cbd e277 d7b9
000000b0: 0bfa 37be 0fc7 95bd d387 0ebe 4e3c 2fbd
000000c0: b9b5 183d 56f7 b63d 8afe 57bd 6c49 b6bc
000000d0: 5869 313d 1678 21bc ade8 f0bb 8eb3 edbd
000000e0: 3881 8e3d 6189 bebc 1946 7e3d 2a31 ab3c
000000f0: ecd3 f43d c99c c73b 39e6 adbd ca0f cdbd
00000100: 2f83 153b 6264 ee3d 747e 22be cb6b 0a3e
00000110: e8d3 b6bd 205f 82bc daf6 18bd 8f7e 863d
00000120: a00d dbbc acc0 85bd e73c 993d f48c 423d
00000130: 2dcf 1fbc 56a3 903d 1058 a0bd 4b27 cd3c
00000140: 5f86 2d3d 8c51 dbbd 0927 febc dd90 c23d
00000150: 68b3 f13d 77f5 8c3d c320 e0bd cdf8 9f3d
00000160: a6da 5cbd 9d19 ebbc 9439 17be 3efd 42bd
00000170: 40da b73c fbab 0a3e a998 10be 2775 233e
00000180: ff21 763e f923 87bd eb69 d13d 5850 25bd
00000190: e528 4cbe f5c0 213c 7797 cbbd 677b b9bd
000001a0: 4ed3 8fbd 9bb9 4c3e 149e e33c cc33 4dbe
000001b0: 48f1 443d 7fe1 36bd 5ff3 843c e6bd fe3b
000001c0: 3bea b5bd a619 333c 62b4 90bc 4473 29bd
000001d0: 5d6d 01be 060d acbd f51b 8dbd 015a 5bbd
000001e0: d3ec 7e3c 0ab7 a6bb 12c9 203e b690 ad3c
000001f0: c910 2c3d 0e92 efbd ca71 263e d4b2 e0bd
00000200: c7a2 aebd 4712 fd3d e96e aebd 21da 203d
00000210: 8098 2fbe ed8d 05be 8909 00be 326e 96bc
00000220: a05d 823d 10b4 f83c b275 87be bcca 673c
00000230: 5f49 a4bc 8fda bb3d da8d ca3d b8de f63c
00000240: 6eba ef3d c9eb 403c 5a86 f03c 6ccc 423e
00000250: a9a4 b9bc fcc8 6cbd 387b 34be 0266 32be
00000260: 96a8 873d ee3e 043e 5cc3 a03d a173 073d
00000270: 6286 193e 1bf0 473d efa7 ea3c 5226 4cbe
00000280: 106c fd3d ae08 12bd 3391 20be e992 033e
00000290: c555 be3d 3b4f d93d 5ef8 d13c 14bf 6ebd
000002a0: 0b63 be3d 7b1b ec3d 6359 263c 00a7 eebd
000002b0: 57ca 303d 582d 293d 8b38 1cbe 60a5 29be
000002c0: 9104 493d 383c 273e 0b14 04be 4725 043c
000002d0: 47b6 5fbc 1f2b 67bd 442e 7f3e 49e5 ce3d
000002e0: 0782 81bd c23c f6bd ef9d 8c3c 5d7d 61bd
000002f0: b246 073d 4631 01be a453 82bd 272d dcbd
00000300: 2250 a73c cc00 d5bd 7edb 00be 970c 3fbd
00000310: bb35 bd3c c488 90bd 5ca1 ef3d f2e7 9d3d
00000320: 29d7 4cbe 4a45 d3bc 555a 83bd b6d3 f23d
00000330: cfe7 1b3d f4c9 d03d 40db 22be 704b 7f3d
00000340: ac29 c5bc aec5 b4bd eb2a 29be 44e9 bbba
00000350: 9be5 a1bd 7e32 4e3d 802e 13be 8fbb ba3d
00000360: a568 c43c 36b8 a73c 80e1 173e 9fa5 f9bd
00000370: 7931 23bd 54a5 0abe f526 073e 58f7 1d3d
00000380: e822 a6ba d129 173e d490 60bd 2093 86bd
00000390: 607d d3bd 79b2 ff3d 696d 5c3e a041 563e
000003a0: 772f b13d 2951 fa3c 4178 f7bd 73cc 773d
000003b0: 03c1 bf3d 9925 1d3e c0ad 0abe 262f 3abd
000003c0: a55f e0bc d708 babd 25cc 043d 69dd 6ebb
000003d0: 1ed2 9a3c d069 d73c a2fb d73d 5fcc 093e
000003e0: d564 533d 4b6f b93a 8eee 29bd a5e2 4d3e
000003f0: d18b b3bd 5d8f 683d 60a5 7abe c1c6 953d

bias f4 [64]
-0.02493748 0.036975857 0.081017405 0.07432981 -0.016674789 -0.032749344 0.16555919 -0.002455049
0.1812414 0.02238093 0.09921614 -0.11662999 0.08620422 0.113406286 0.13592897 0.12504265
0.068264075 0.049300965 0.072433464 -0.010210059 -0.030053867 0.17878318 0.054161705 0.12344182
0.15287544 0.056738857 0.113426544 -0.014623311 0.083012044 0.054238893 0.11342735 0.010669123
0.14443283 0.10923738 0.05915927 0.05047392 0.020365248 0.030616103 0.1550646 0.060081195
0.1070007 -0.0516943 -0.14566009 0.09349642 -0.05044501 0.10867901 0.06561073 0.039149836
-0.009954511 0.13529952 -0.096616656 0.058551934 -0.024733786 0.16059229 0.034398656 0.1919044
0.22699663 0.06778419 -0.0026576363 0.03138059 0.10569707 0.16013843 0.05158833 -0.12513474
00000000: b049 ccbc ff73 173d 74ec a53d 3a3a 983d
00000010: 9199 88bc 2d24 06bd 5988 293e e3e4 20bb
00000020: 5897 393e 3658 b73c d531 cb3d b4db eebd
00000030: d78b b03d 8e41 e83d f730 0b3e 2e0b 003e
00000040: 09ce 8b3d cfef 493d ff57 943d 1748 27bc
00000050: 8733 f6bc f012 373e aad8 5d3d 11cf fc3d
00000060: 618b 1c3e 0167 683d 2d4c e83d 9d96 6fbc
00000070: 3802 aa3d 9a29 5e3d 994c e83d 8ccd 2e3c
00000080: 33e6 133e d9b7 df3d fe50 723d bebd 4e3d
00000090: 05d5 a63c 9fce fa3c 41c9 1e3e b317 763d
000000a0: 2f23 db3d 67bd 53bd eb27 15be 0d7b bf3d
000000b0: 6d9f 4ebd 1a93 de3d eb5e 863d 945b 203d
000000c0: 3f18 23bc f58b 0a3e f4de c5bd 27d4 6f3d
000000d0: 829e cabc 4e72 243e 9be5 0c3d 9682 443e
000000e0: ce71 683e 70d2 8a3d bd2b 2ebb ef88 003d
000000f0: b577 d83d 54fb 233e 494e 533d 5223 00be

weight f4 [64]
0.80782485 0.92602813 0.9380726 0.9858578 0.81339866 0.79287666 1.0000191 0.9334684
0.837474 1.0257592 0.84259105 0.70785403 1.0254954 0.95332384 1.0708781 1.0037469
0.7183079 0.94239485 0.90520215 0.8736449 0.897622 0.98217297 0.81878096 0.9238796
0.96489275 0.92116517 0.85618764 0.80964893 0.6449808 0.7859397 1.0828261 0.9095795
1.1112568 0.8382972 0.802188 0.9236907 0.976302 0.8892889 0.97951597 0.8838001
0.8454046 0.67672837 0.7894605 0.9366281 0.87670326 1.0168437 0.8874878 0.7749115
0.67292225 0.97046477 0.73230135 0.86854327 0.8928506 0.9353889 0.80497354 0.9826491
0.97457165 0.85692215 0.8445081 0.8915281 1.0411017 1.2147233 0.9192909 0.8269918
00000000: 9ccd 4e3f 2e10 6d3f 8725 703f 2d61 7c3f
00000010: e53a 503f f7f9 4a3f a000 803f c9f7 6e3f
00000020: b264 563f 144c 833f 0cb4 573f ec35 353f
00000030: 6f43 833f 080d 743f 8912 893f c77a 803f
00000040: 07e3 373f ca40 713f 54bb 673f 31a7 5f3f
00000050: 8eca 653f b06f 7b3f a19b 513f 6083 6c3f
00000060: 3603 773f 7bd1 6b3f 1d2f 5b3f 2745 4f3f
00000070: 761d 253f 5833 493f 0c9a 8a3f 34da 683f
00000080: aa3d 8e3f a59a 563f 315c 4d3f fe76 6c3f
00000090: eeee 793f 70a8 633f 8fc1 7a3f b940 623f
000000a0: 706c 583f 123e 2d3f 151a 4a3f dcc6 6f3f
000000b0: a06f 603f ef27 823f 6732 633f 9a60 463f
000000c0: a244 2c3f 6170 783f 1a78 3b3f da58 5e3f
000000d0: db91 643f a675 6f3f bf12 4e3f e48e 7b3f
000000e0: 877d 793f 405f 5b3f af31 583f 303b 643f
000000f0: d242 853f 0e7c 9b3f a656 6b3f bcb5 533f

bias f4 [64]
-0.024012886 0.06398209 -0.08303782 0.15411457 0.0034828093 0.22610119 0.18561423 0.0016083582
0.018353455 0.043014888 0.0040550497 -0.08407078 -0.031244507 0.20641486 0.04647234 0.15677023
-0.08782072 -0.070418075 -0.1409999 0.12818967 0.0589068 0.06929386 -0.050262313 0.07531157
-0.008252408 0.07760311 -0.09617695 -0.012674834 -0.050182834 -0.022343671 0.14717855 -0.1431759
0.027616836 -0.010388972 0.06905126 -0.011726982 0.0032089378 -0.09511612 0.055299986 0.035039272
-0.019865131 0.13757595 0.07762827 0.06731502 -0.00433403 0.08510136 -0.01333178 0.15397723
0.13490358 -0.085956715 -0.054640144 -0.038429487 0.039179444 0.042989444 -0.11100056 0.16067505
0.1690704 0.18442807 0.078757755 0.038011186 0.044193983 0.010583642 0.031544033 0.2352865
00000000: acb6 c4bc 0b09 833d bc0f aabd 36d0 1d3e
00000010: d83f 643b 1287 673e a811 3e3e 8ccf d23a
00000020: fc59 963c 6130 303d 39e0 843b 4d2d acbd
00000030: 7bf4 ffbc 6b5e 533e c859 3e3d 6088 203e
00000040: 5adb b3bd 5a37 90bd 4762 10be 2744 033e
00000050: 4248 713d f0e9 8d3d dbdf 4dbd f43c 9a3d
00000060: 1c35 07bc 61ee 9e3d 6cf8 c4bd 1baa 4fbc
00000070: 848c 4dbd 130a b7bc f9b5 163e b49c 12be
00000080: b43c e23c 8236 2abc bf6a 8d3d 8722 40bc
00000090: 0b4d 523b 3ecc c2bd 3d82 623d 5785 0f3d
000000a0: 33bc a2bc b6e0 0c3e 92fb 9e3d 75dc 893d
000000b0: 7b04 8ebb 9f49 ae3d 8a6d 5abc 35ac 1d3e
000000c0: 2a24 0a3e 130a b0bd 58ce 5fbd 3d68 1dbd
000000d0: a07a 203d b315 303d 4354 e3bd 0088 243e
000000e0: ca20 2d3e b6da 3c3e bf4b a13d 9eb1 1b3d
000000f0: c004 353d 0367 2d3c 5134 013d f2ee 703e

running_mean f4 [64]
1.0018501 1.5078696 1.3794547 1.5933647 0.68881834 0.8387708 2.054647 1.5235786
1.3275764 1.2338603 1.1190755 1.1430737 1.5491303 1.9294444 1.9738709 1.926084
1.5133228 1.1694902 1.9366188 1.0093063 1.2034881 1.7543418 1.0164849 1.6444942
2.0090356 1.2210591 1.3736196 0.91410565 0.85320014 0.6975013 1.9953403 1.1728551
1.8979447 0.7323742 1.175058 1.4158199 1.1339136 1.2237115 1.9387656 1.2250967
1.9540513 0.94373286 0.41361603 1.53424 1.1539428 1.9590296 1.8680543 0.83547443
0.55793715 1.5732515 0.56292903 1.6139448 0.95432305 1.818027 1.1705388 2.2294161
2.5119123 1.0770606 1.2754009 1.2559417 1.9305723 1.9362338 1.6874908 0.39234924
00000000: a03c 803f df01 c13f f991 b03f 60f3 cb3f
00000010: 6656 303f afb9 563f 567f 0340 a004 c33f
00000020: 06ee a93f 22ef 9d3f de3d 8f3f 3d50 923f
00000030: e749 c63f 09f8 f63f cda7 fc3f ec89 f63f
00000040: 90b4 c13f dbb1 953f 20e3 f73f f330 813f
00000050: e60b 9a3f 468e e03f 2d1c 823f c97e d23f
00000060: 0a94 0040 aa4b 9c3f c4d2 af3f d402 6a3f
00000070: 536b 5a3f 728f 323f 5067 ff3f 1e20 963f
00000080: daef f23f e07c 3b3f 4d68 963f 9639 b53f
00000090: 1524 913f 94a2 9c3f 7929 f83f f8cf 9c3f
000000a0: 5a1e fa3f 7a98 713f 7bc5 d33e fa61 c43f
000000b0: 66b4 933f 7bc1 fa3f 671c ef3f a7e1 553f
000000c0: f8d4 0e3f 4e60 c93f 1e1c 103f be95 ce3f
000000d0: 844e 743f 1cb5 e83f 37d4 953f c1ae 0e40
000000e0: 2cc3 2040 1fdd 893f 5640 a33f b3c2 a03f
000000f0: fe1c f73f 82d6 f73f b3ff d73f 00e2 c83e

running_var f4 [64]
1.990877 2.7532673 4.6850624 3.340081 0.87622297 1.6100746 4.7570972 5.3041024
2.448869 2.545577 1.7219418 2.0258982 3.6868975 4.3336926 4.8553414 4.164748
2.9799135 2.4089708 5.1724067 1.4739865 3.1602044 4.0136995 2.3858511 3.4595094
5.2617383 2.063431 3.1146393 1.7380024 1.1325586 0.78869075 5.1331916 2.1602054
4.5650625 0.9162532 2.4206762 3.208056 1.6832924 2.0957017 4.2088776 2.5829499
4.834148 1.2598016 0.4478702 3.0930302 1.8384669 4.637713 4.4729533 2.0716183
0.5413544 3.289293 1.4157612 3.5066044 2.0726235 3.8043888 2.0627391 5.730617
6.8281007 1.881237 3.2746928 2.6122963 4.349481 4.321824 4.4550586 0.53070265
00000000: 0fd5 fe3f 8835 3040 08ec 9540 e3c3 5540
00000010: 2650 603f ed16 ce3f 243a 9840 35bb a940
00000020: 45ba 1c40 bcea 2240 9768 dc3f 51a8 0140
00000030: 21f6 6b40 9cad 8a40 f55e 9b40 9e45 8540
00000040: e7b6 3e40 942c 1a40 5b84 a540 97ab bc3f
00000050: ca40 4a40 3a70 8040 c9b1 1840 9a68 5d40
00000060: 2960 a840 410f 0440 4056 4740 dd76 de3f
00000070: aef7 903f a3e7 493f 1b43 a440 ce40 0a40
00000080: fe14 9240 928f 6a3f 5cec 1a40 ca50 4d40
00000090: 2076 d73f fa1f 0640 20af 8640 0d4f 2540
000000a0: 57b1 9a40 2e41 a13f 3e4f e53e 35f4 4540
000000b0: e252 eb3f 2568 9440 6f22 8f40 6595 0440
000000c0: 3496 0a3f c783 5240 aa37 b53f 356c 6040
000000d0: dda5 0440 1b7b 7340 eb03 0440 3761 b740
000000e0: cd7f da40 60cc f03f 9194 5140 dd2f 2740
000000f0: f32e 8b40 624c 8a40 d78f 8e40 21dc 073f

weight f4 [32, 64]
0.1683038 -0.0031026383 -0.2541969 0.08906712 -0.13908976 -0.20269461 0.12633629 -0.14379573
0.07679873 0.11437127 0.09458231 0.09046434 0.0042298497 0.21298154 0.008664881 0.19324188
-0.081684195 0.15721457 -0.009750394 0.1426514 -0.036916904 0.1833366 -0.0389689 0.1183985
-0.23820929 -0.2735281 -0.29598823 0.025970528 -0.12586845 -0.11855261 0.022661306 -0.30869424
-0.075252675 -0.13632853 0.18181011 -0.128039 -0.17553823 0.07771051 -0.050435755 0.09956713
-0.07051412 -0.10044517 -0.10010521 -0.20909844 0.06814093 0.21909374 -0.2432901 0.020231372
0.03841974 -0.32139415 -0.08000901 -0.11072675 -0.2546508 -0.17272723 -0.117667116 0.16247666
-0.011357003 0.19335051 0.040337082 -0.20202523 -0.07581754 0.2135796 0.123628534 0.08635925
0.09947655 -0.21195304 0.17231949 -0.09382141 -0.017534427 0.055109695 0.0774844 0.02269318
0.15740149 -0.10393154 -0.13987598 0.073393494 0.15543154 0.038162682 -0.008891316 -0.052815944
0.06597945 -0.14955574 0.06721967 0.0026754162 0.115919374 0.14857283 0.21689601 -0.0926645
0.09678334 -0.047138814 -0.11830364 -0.021870928 -0.0044478728 -0.15679137 -0.13463761 0.20294647
0.041854482 0.22711769 0.07102527 0.08041247 -0.17051446 0.095508605 0.042516798 -0.067033865
-0.18182984 -0.038490962 -0.11674717 -0.05704447 -0.007627994 0.07219508 0.025756111 -0.11067556
0.06987439 -0.032464672 -0.068191394 0.12151246 0.07620362 -0.04515615 0.10070418 -0.12526911
-0.060798246 -0.0012521521 -0.026682282 0.30523548 0.05872499 -0.06814937 0.2464399 -0.010464541
-0.14800783 0.2146436 0.074608885 -0.14819874 0.0041284 -0.025538767 0.20519449 0.09661279
-0.22108178 -0.12179655 -0.16259983 0.1078388 -0.20029627 -0.045282166 -0.009802966 0.21137854
-0.09472434 -0.12799709 -0.028032634 -0.14440463 0.24771453 -0.21326512 -0.001338411 -0.15305638
-0.28642616 -0.04688272 -0.19098876 -0.10410424 -0.17455679 0.06766249 0.18834564 -0.1609814
0.14886014 0.18559638 -0.06654769 -0.16715154 0.03919729 0.061413255 -0.112416536 0.1010609
-0.34299853 0.07569869 0.1200089 -0.20690048 0.16627003 0.008661869 -0.26651108 0.13323809
0.10421916 -0.3747052 0.015530179 -0.08469446 -0.0988454 0.21636753 -0.20382744 0.038052734
0.002868823 0.009891561 -0.16888526 0.12018863 -0.078236744 -0.13343747 -0.03416017 -0.024316685
-0.23330481 0.18580613 -0.2701634 -0.104181506 0.17820765 0.031386647 0.0069813803 -0.197212
-0.078660294 -0.010395656 -0.2596582 -0.13426258 -0.29306072 0.15299825 0.18198998 0.20484212
-0.17512539 -0.011260714 -0.20175467 0.13279836 0.029678106 -0.15204138 -0.18265161 -0.13153924
-0.15391131 -0.12440213 -0.22635742 0.0128967725 -0.17653166 -0.13577005 0.101580024 -0.14789551
0.03469317 -0.01918892 0.08745027 0.1110184 0.06931809 -0.20781085 -0.14943619 -0.10927638
-0.07104004 0.14529297 -0.20964134 0.034107767 0.006804887 -0.20156835 -0.14290921 0.21435562
-0.0626717 -0.19589765 -0.17458425 -0.12275408 -0.1790045 0.157623 -0.09420363 0.13396133
0.12482987 0.20205218 -0.23094134 -0.10993407 -0.025695404 -0.12046826 -0.15455642 0.18662356
00000000: d557 2c3e a255 4bbb 1926 82be d268 b63d
00000010: 8c6d 0ebe 2d8f 4fbe 4d5e 013e 303f 13be
00000020: a748 9d3d 7c3b ea3d 5fb4 c13d 5e45 b93d
00000030: 8d9a 8a3b d517 5a3e 25f7 0d3c 33e1 453e
00000040: 0b4a a7bd dbfc 203e 1ec0 1fbc 3513 123e
00000050: 2e36 17bd 97bc 3b3e da9d 1fbd ea7a f23d
00000060: 23ed 73be e00b 8cbe c58b 97be 25c0 d43c
00000070: a9e3 00be b6cb f2bd 34a4 b93c 2c0d 9ebe
00000080: 131e 9abd b599 0bbe 6e2c 3a3e a81c 03be
00000090: 4bc0 33be b026 9f3d b995 4ebd dae9 cb3d
000000a0: b569 90bd 33b6 cdbd f603 cdbd e71d 56be
000000b0: 798d 8b3d 1c5a 603e 0a21 79be 43bc a53c
000000c0: 045e 1d3d c68d a4be c4db a3bd b5c4 e2bd
000000d0: 9761 82be 68df 30be 75fb f0bd 4860 263e
000000e0: b912 3abc adfd 453e 7f38 253d b4df 4ebe
000000f0: 3a46 9bbd 9cb4 5a3e f530 fd3d 1edd b03d
00000100: 5dba cb3d 380a 59be 8574 303e 7025 c0bd
00000110: 5ca4 8fbc b4ba 613d 24b0 9e3d 0ce7 b93c
00000120: db2d 213e 0fda d4bd a63b 0fbe 544f 963d
00000130: 7229 1f3e 7950 1c3d e2ac 11bc 8855 58bd
00000140: 3c20 873d 2425 19be 77aa 893d 0956 2f3b
00000150: 2367 ed3d 7a23 183e fd19 5e3e e3c6 bdbd
00000160: 5836 c63d a114 41bd 2e49 f2bd a92a b3bc
00000170: 76bf 91bb eb8d 20be 71de 09be 33d1 4f3e
00000180: 9b6f 2b3d 8a91 683e b275 913d 4baf a43d
00000190: 589b 2ebe 049a c33d 1826 2e3d 0d49 89bd
000001a0: 9a31 3abe b3a8 1dbd 2419 efbd 76a7 69bd
000001b0: 40f4 f9bb 04db 933d 7bfe d23c dea9 e2bd
000001c0: 4e1a 8f3d adf9 04bd eea7 8bbd 86db f83d
000001d0: a510 9c3d a8f5 38bd fe3d ce3d 8c46 00be
000001e0: 9507 79bd 411f a4ba cd94 dabc d347 9c3e
000001f0: 9d89 703d e691 8bbd be5a 7c3e 7773 2bbc
00000200: 5d8f 17be 88cb 5b3e 8bcc 983d 69c1 17be
00000210: 8747 873b ad36 d1bc 811e 523e eddc c53d
00000220: 4363 62be 7870 f9bd 9280 26be 97da dc3d
00000230: 771a 4dbe cb79 39bd 9f9c 20bc 9e73 583e
00000240: d6fe c1bd ab11 03be b2a4 e5bc cfde 13be
00000250: e1a8 7d3e 2c62 5abe 9f6d afba d0ba 1cbe
00000260: 73a6 92be 1808 40bd 8f92 43be 9b34 d5bd
00000270: 04bf 32be a292 8a3d aedd 403e 4fd8 24be
00000280: cb6e 183e fa0c 3e3e 284a 88bd c629 2bbe
00000290: 568d 203d 778c 7b3d a43a e6bd 04f9 ce3d
000002a0: 819d afbe ea07 9b3d 3ac7 f53d b8dd 53be
000002b0: b142 2a3e 83ea 0d3c 2474 88be 916f 083e
000002c0: db70 d53d 5cd9 bfbe 4b72 7e3c 4a74 adbd
000002d0: 756f cabd 738f 5d3e 24b8 50be 2fdd 1b3d
000002e0: dd02 3c3b 3710 223c 42f0 2cbe 7525 f63d
000002f0: 963a a0bd d5a3 08be 89eb 0bbd c933 c7bc
00000300: 75e7 6ebe f643 3e3e db52 8abe 1d5d d5bd
00000310: 117c 363e 498f 003d 10c4 e43b f1f1 49be
00000320: a618 a1bd 8b52 2abc ebf1 84be 217c 09be
00000330: 0e0c 96be 93ab 1c3e 955b 3a3e 22c2 513e
00000340: 1254 33be dc7e 38bc c798 4ebe 4bfc 073e
00000350: 801f f33c bcb0 1bbe 0609 3bbe 39b2 06be
00000360: ed9a 1dbe 8bc6 febd 3dca 67be fc4c 533c
00000370: b7c4 34be 4e07 0bbe 3009 d03d ec71 17be
00000380: 6d1a 0e3d 1532 9dbc 2119 b33d 9d5d e33d
00000390: a5f6 8d3d 5ecc 54be cd05 19be 4bcc dfbd
000003a0: 717d 91bd aec7 143e 38ac 56be 96b4 0b3d
000003b0: 88fb de3b ef67 4ebe cb56 12be 0a80 5b3e
000003c0: 055a 80bd 6599 48be 37c6 32be 7e66 fbbd
000003d0: f54c 37be ec67 213e d5ed c0bd 292d 093e
000003e0: cea6 ff3d c4e6 4e3e e37b 6cbe 1d25 e1bd
000003f0: 2b7f d2bc 10b8 f6bd 0a44 1ebe 3f1a 3f3e

bias f4 [32]
0.22341947 0.06725244 0.17762733 0.22576845 0.24331492 0.14470272 0.22110689 0.16970539
0.14270039 0.061126757 0.19216946 0.08370704 0.08884367 0.15880097 0.10329838 0.1391768
0.23972926 0.10272536 0.26422584 0.20848913 0.20969142 0.19658384 0.24387203 0.11780326
0.2356623 0.20517378 0.12584455 0.21889567 0.20139387 0.2030544 0.10349316 0.21062973
00000000: 13c8 643e a6bb 893d f0e3 353e d82f 673e
00000010: 8c27 793e f32c 143e d869 623e 40c7 2d3e
00000020: 0d20 123e 0d60 7a3d 12c8 443e 996e ab3d
00000030: acf3 b53d b99c 223e 1a8e d33d 5d84 0e3e
00000040: 967b 753e ac61 d23d 9c48 873e 2d7e 553e
00000050: 59b9 563e 464d 493e 97b9 793e d642 f13d
00000060: 7551 713e 1319 523e 65dd 003e 3026 603e
00000070: 323a 4e3e 7eed 4f3e 39f4 d33d 52af 573e

weight f4 [32]
1.1356194 1.1421471 1.3590646 1.169325 1.2181684 1.2099321 1.2617056 1.1323164
1.277647 1.1269224 1.2243028 1.4750866 1.0740212 1.1690253 1.153029 1.1391448
1.3893595 1.1742694 1.03329 1.1861451 1.111077 1.182911 1.5578821 1.1486737
1.5137414 1.2195348 1.22168 1.2354965 1.1325389 1.4359562 1.1701927 1.1908853
00000000: fa5b 913f e031 923f d4f5 ad3f 71ac 953f
00000010: f1ec 9b3f 0edf 9a3f 927f a13f beef 903f
00000020: f089 a33f fe3e 903f f4b5 9c3f a3cf bc3f
00000030: 8779 893f 9fa2 953f 7496 933f 7fcf 913f
00000040: 88d6 b13f 764e 963f d942 843f 9ad3 973f
00000050: c537 8e3f a169 973f ae68 c73f bd07 933f
00000060: 47c2 c13f b719 9c3f 0360 9c3f c024 9e3f
00000070: 09f7 903f 6acd b73f e0c8 953f ee6e 983f

bias f4 [32]
-0.0033433845 0.06864031 -0.009350503 -0.014082234 -0.008159029 0.050485242 0.042235505 -0.021146763
0.044966713 0.0041708415 0.10853273 0.070227295 0.044601493 0.048889615 0.05172455 0.039733637
0.042871196 0.054466497 0.12565379 -0.020289736 0.07463811 0.06047404 0.108434886 0.03153054
9.245989e-05 0.060410697 -0.045285363 -0.019649517 0.021558082 0.069181286 0.028941281 0.12566665
00000000: af1c 5bbb 4a93 8c3d da32 19bc 2cb9 66bc
00000010: 73ad 05bc 9dc9 4e3d 23ff 2c3d fa3b adbc
00000020: 042f 383d 8eab 883b 6846 de3d 54d3 8f3d
00000030: 0eb0 363d 7a40 483d 1fdd 533d bdbf 223d
00000040: b599 2f3d 4318 5f3d 63ab 003e a936 a6bc
00000050: dedb 983d a1b3 773d 1c13 de3d 2b26 013d
00000060: 07e7 c138 3571 773d 257d 39bd 06f8 a0bc
00000070: 939a b03c ebae 8d3d 4416 ed3c c2ae 003e

running_mean f4 [32]
1.4354622 0.7303021 2.0702076 2.2929366 2.1458986 1.7270703 2.0635157 1.8962111
1.4644858 1.0481775 1.2790792 1.3284404 1.1485171 1.5742793 1.4140867 1.5316002
1.869973 1.4855794 1.3315598 2.125509 1.3683393 1.6936637 1.623902 1.374705
1.9438127 1.5369856 2.1724708 1.7885845 1.3594542 1.5114853 1.0107206 1.5473694
00000000: 3abd b73f 14f5 3a3f 487e 0440 79bf 1240
00000010: 6756 0940 a410 dd3f a410 0440 0cb7 f23f
00000020: 4574 bb3f ae2a 863f deb8 a33f 560a aa3f
00000030: 9c02 933f fc81 c93f cb00 b53f 7a0b c43f
00000040: 465b ef3f 7727 be3f 8d70 aa3f 5708 0840
00000050: be25 af3f f9c9 d83f 05dc cf3f 55f6 af3f
00000060: dbce f83f f2bb c43f c309 0b40 56f0 e43f
00000070: 9802 ae3f 5a78 c13f 4b5f 813f 3310 c63f

running_var f4 [32]
2.7488284 1.2952003 4.9086914 5.7362947 4.956531 3.645432 4.623334 4.538967
2.6971416 2.4678626 2.208497 2.3434365 2.1123796 3.112129 2.7380474 3.2613864
3.9000773 3.0388331 2.2989707 5.059477 2.680766 3.5443795 3.305807 3.5245397
4.1963205 2.964864 5.3053885 3.8523169 2.1920226 3.0124528 1.7656566 3.043775
00000000: ceec 2f40 20c9 a53f 0014 9d40 ba8f b740
00000010: e79b 9e40 c24e 6940 5af2 9340 383f 9140
00000020: f89d 2c40 76f1 1d40 0458 0d40 ddfa 1540
00000030: 3a31 0740 1f2d 4740 2b3c 2f40 8eba 5040
00000040: de9a 7940 3e7c 4240 5622 1340 3ce7 a140
00000050: ac91 2b40 1dd7 6240 5892 5340 0f92 6140
00000060: 4248 8640 55c0 3d40 bec5 a940 5c8c 7640
00000070: 194a 0c40 07cc 4040 0901 e23f 36cd 4240

weight f4 [1, 32]
-0.54607433 0.30095372 -0.42887294 -0.62206775 -0.4336679 0.46719182 -0.65823656 -0.3388342
0.32702553 -0.51816374 0.3501694 0.4683265 0.385172 0.49575382 0.46061277 0.42372453
-0.334523 0.5669856 0.25061378 -0.57684475 0.52683645 0.5720845 0.40138412 0.5806074
-0.41601855 0.5538024 -0.3955743 -0.30825043 -0.3145538 0.32563478 0.27735925 0.5091249
00000000: 87cb 0bbf 9b16 9a3e 3c95 dbbe d53f 1fbf
00000010: b809 debe c433 ef3e 3182 28bf ad7b adbe
00000020: e46f a73e 61a6 04bf 6749 b33e 7ec8 ef3e
00000030: 4435 c53e 72d3 fd3e 70d5 eb3e 6cf2 d83e
00000040: 9946 abbe f825 113f 7350 803e 19ac 13bf
00000050: c1de 063f 2174 123f 3882 cd3e b0a2 143f
00000060: 6200 d5be fec5 0d3f b788 cabe 00d3 9dbe
00000070: 320d a1be 9ab9 a63e 0802 8e3e 0256 023f
